{"format": "layers-model", "generatedBy": "keras v2.4.0", "convertedBy": "TensorFlow.js Converter v2.8.1", "modelTopology": {"keras_version": "2.4.0", "backend": "tensorflow", "model_config": {"class_name": "Functional", "config": {"name": "model", "layers": [{"class_name": "InputLayer", "config": {"batch_input_shape": [null, null, null, 3], "dtype": "float32", "sparse": false, "ragged": false, "name": "input_1"}, "name": "input_1", "inbound_nodes": []}, {"class_name": "Conv2D", "config": {"name": "conv2d", "trainable": true, "dtype": "float32", "filters": 64, "kernel_size": [3, 3], "strides": [1, 1], "padding": "same", "data_format": "channels_last", "dilation_rate": [1, 1], "groups": 1, "activation": "linear", "use_bias": true, "kernel_initializer": {"class_name": "GlorotUniform", "config": {"seed": null}}, "bias_initializer": {"class_name": "Zeros", "config": {}}, "kernel_regularizer": null, "bias_regularizer": null, "activity_regularizer": null, "kernel_constraint": null, "bias_constraint": null}, "name": "conv2d", "inbound_nodes": [[["input_1", 0, 0, {}]]]}, {"class_name": "Conv2D", "config": {"name": "conv2d_1", "trainable": true, "dtype": "float32", "filters": 64, "kernel_size": [3, 3], "strides": [1, 1], "padding": "same", "data_format": "channels_last", "dilation_rate": [1, 1], "groups": 1, "activation": "linear", "use_bias": true, "kernel_initializer": {"class_name": "GlorotUniform", "config": {"seed": null}}, "bias_initializer": {"class_name": "Zeros", "config": {}}, "kernel_regularizer": null, "bias_regularizer": null, "activity_regularizer": null, "kernel_constraint": null, "bias_constraint": null}, "name": "conv2d_1", "inbound_nodes": [[["conv2d", 0, 0, {}]]]}, {"class_name": "Conv2D", "config": {"name": "conv2d_10", "trainable": true, "dtype": "float32", "filters": 64, "kernel_size": [3, 3], "strides": [1, 1], "padding": "same", "data_format": "channels_last", "dilation_rate": [1, 1], "groups": 1, "activation": "linear", "use_bias": true, "kernel_initializer": {"class_name": "GlorotUniform", "config": {"seed": null}}, "bias_initializer": {"class_name": "Zeros", "config": {}}, "kernel_regularizer": null, "bias_regularizer": null, "activity_regularizer": null, "kernel_constraint": null, "bias_constraint": null}, "name": "conv2d_10", "inbound_nodes": [[["conv2d_1", 0, 0, {}]]]}, {"class_name": "Conv2D", "config": {"name": "conv2d_2", "trainable": true, "dtype": "float32", "filters": 64, "kernel_size": [1, 1], "strides": [1, 1], "padding": "valid", "data_format": "channels_last", "dilation_rate": [1, 1], "groups": 1, "activation": "linear", "use_bias": true, "kernel_initializer": {"class_name": "GlorotUniform", "config": {"seed": null}}, "bias_initializer": {"class_name": "Zeros", "config": {}}, "kernel_regularizer": null, "bias_regularizer": null, "activity_regularizer": null, "kernel_constraint": null, "bias_constraint": null}, "name": "conv2d_2", "inbound_nodes": [[["conv2d_1", 0, 0, {}]]]}, {"class_name": "ReLU", "config": {"name": "re_lu", "trainable": true, "dtype": "float32", "max_value": null, "negative_slope": 0.0, "threshold": 0.0}, "name": "re_lu", "inbound_nodes": [[["conv2d_10", 0, 0, {}]]]}, {"class_name": "TFOpLambda", "config": {"name": "tf.nn.relu", "trainable": true, "dtype": "float32", "function": "nn.relu"}, "name": "tf.nn.relu", "inbound_nodes": [[["conv2d_2", 0, 0, {"name": null}]]]}, {"class_name": "Conv2D", "config": {"name": "conv2d_11", "trainable": true, "dtype": "float32", "filters": 64, "kernel_size": [3, 3], "strides": [1, 1], "padding": "same", "data_format": "channels_last", "dilation_rate": [1, 1], "groups": 1, "activation": "linear", "use_bias": true, "kernel_initializer": {"class_name": "GlorotUniform", "config": {"seed": null}}, "bias_initializer": {"class_name": "Zeros", "config": {}}, "kernel_regularizer": null, "bias_regularizer": null, "activity_regularizer": null, "kernel_constraint": null, "bias_constraint": null}, "name": "conv2d_11", "inbound_nodes": [[["re_lu", 0, 0, {}]]]}, {"class_name": "Conv2D", "config": {"name": "conv2d_3", "trainable": true, "dtype": "float32", "filters": 64, "kernel_size": [3, 3], "strides": [1, 1], "padding": "same", "data_format": "channels_last", "dilation_rate": [1, 1], "groups": 1, "activation": "linear", "use_bias": true, "kernel_initializer": {"class_name": "GlorotUniform", "config": {"seed": null}}, "bias_initializer": {"class_name": "Zeros", "config": {}}, "kernel_regularizer": null, "bias_regularizer": null, "activity_regularizer": null, "kernel_constraint": null, "bias_constraint": null}, "name": "conv2d_3", "inbound_nodes": [[["tf.nn.relu", 0, 0, {}]]]}, {"class_name": "GlobalAveragePooling2D", "config": {"name": "global_average_pooling2d", "trainable": true, "dtype": "float32", "data_format": "channels_last"}, "name": "global_average_pooling2d", "inbound_nodes": [[["conv2d_11", 0, 0, {}]]]}, {"class_name": "TFOpLambda", "config": {"name": "tf.nn.relu_1", "trainable": true, "dtype": "float32", "function": "nn.relu"}, "name": "tf.nn.relu_1", "inbound_nodes": [[["conv2d_3", 0, 0, {"name": null}]]]}, {"class_name": "TFOpLambda", "config": {"name": "tf.reshape", "trainable": true, "dtype": "float32", "function": "reshape"}, "name": "tf.reshape", "inbound_nodes": [[["global_average_pooling2d", 0, 0, {"shape": [-1, 1, 1, 64]}]]]}, {"class_name": "TFOpLambda", "config": {"name": "tf.math.reduce_max", "trainable": true, "dtype": "float32", "function": "math.reduce_max"}, "name": "tf.math.reduce_max", "inbound_nodes": [[["conv2d_11", 0, 0, {"axis": -1}]]]}, {"class_name": "TFOpLambda", "config": {"name": "tf.math.reduce_mean", "trainable": true, "dtype": "float32", "function": "math.reduce_mean"}, "name": "tf.math.reduce_mean", "inbound_nodes": [[["conv2d_11", 0, 0, {"axis": -1}]]]}, {"class_name": "MaxPooling2D", "config": {"name": "max_pooling2d_1", "trainable": true, "dtype": "float32", "pool_size": [2, 2], "padding": "valid", "strides": [2, 2], "data_format": "channels_last"}, "name": "max_pooling2d_1", "inbound_nodes": [[["conv2d_1", 0, 0, {}]]]}, {"class_name": "MaxPooling2D", "config": {"name": "max_pooling2d", "trainable": true, "dtype": "float32", "pool_size": [2, 2], "padding": "valid", "strides": [2, 2], "data_format": "channels_last"}, "name": "max_pooling2d", "inbound_nodes": [[["tf.nn.relu_1", 0, 0, {}]]]}, {"class_name": "Conv2D", "config": {"name": "conv2d_12", "trainable": true, "dtype": "float32", "filters": 8, "kernel_size": [1, 1], "strides": [1, 1], "padding": "valid", "data_format": "channels_last", "dilation_rate": [1, 1], "groups": 1, "activation": "linear", "use_bias": true, "kernel_initializer": {"class_name": "GlorotUniform", "config": {"seed": null}}, "bias_initializer": {"class_name": "Zeros", "config": {}}, "kernel_regularizer": null, "bias_regularizer": null, "activity_regularizer": null, "kernel_constraint": null, "bias_constraint": null}, "name": "conv2d_12", "inbound_nodes": [[["tf.reshape", 0, 0, {}]]]}, {"class_name": "TFOpLambda", "config": {"name": "tf.expand_dims", "trainable": true, "dtype": "float32", "function": "expand_dims"}, "name": "tf.expand_dims", "inbound_nodes": [[["tf.math.reduce_max", 0, 0, {"axis": -1}]]]}, {"class_name": "TFOpLambda", "config": {"name": "tf.expand_dims_1", "trainable": true, "dtype": "float32", "function": "expand_dims"}, "name": "tf.expand_dims_1", "inbound_nodes": [[["tf.math.reduce_mean", 0, 0, {"axis": -1}]]]}, {"class_name": "Conv2D", "config": {"name": "conv2d_5", "trainable": true, "dtype": "float32", "filters": 128, "kernel_size": [1, 1], "strides": [1, 1], "padding": "valid", "data_format": "channels_last", "dilation_rate": [1, 1], "groups": 1, "activation": "linear", "use_bias": true, "kernel_initializer": {"class_name": "GlorotUniform", "config": {"seed": null}}, "bias_initializer": {"class_name": "Zeros", "config": {}}, "kernel_regularizer": null, "bias_regularizer": null, "activity_regularizer": null, "kernel_constraint": null, "bias_constraint": null}, "name": "conv2d_5", "inbound_nodes": [[["max_pooling2d_1", 0, 0, {}]]]}, {"class_name": "Conv2D", "config": {"name": "conv2d_4", "trainable": true, "dtype": "float32", "filters": 128, "kernel_size": [1, 1], "strides": [1, 1], "padding": "valid", "data_format": "channels_last", "dilation_rate": [1, 1], "groups": 1, "activation": "linear", "use_bias": true, "kernel_initializer": {"class_name": "GlorotUniform", "config": {"seed": null}}, "bias_initializer": {"class_name": "Zeros", "config": {}}, "kernel_regularizer": null, "bias_regularizer": null, "activity_regularizer": null, "kernel_constraint": null, "bias_constraint": null}, "name": "conv2d_4", "inbound_nodes": [[["max_pooling2d", 0, 0, {}]]]}, {"class_name": "ReLU", "config": {"name": "re_lu_1", "trainable": true, "dtype": "float32", "max_value": null, "negative_slope": 0.0, "threshold": 0.0}, "name": "re_lu_1", "inbound_nodes": [[["conv2d_12", 0, 0, {}]]]}, {"class_name": "Concatenate", "config": {"name": "concatenate", "trainable": true, "dtype": "float32", "axis": -1}, "name": "concatenate", "inbound_nodes": [[["tf.expand_dims", 0, 0, {}], ["tf.expand_dims_1", 0, 0, {}]]]}, {"class_name": "Add", "config": {"name": "add", "trainable": true, "dtype": "float32"}, "name": "add", "inbound_nodes": [[["conv2d_5", 0, 0, {}], ["conv2d_4", 0, 0, {}]]]}, {"class_name": "Conv2D", "config": {"name": "conv2d_13", "trainable": true, "dtype": "float32", "filters": 64, "kernel_size": [1, 1], "strides": [1, 1], "padding": "valid", "data_format": "channels_last", "dilation_rate": [1, 1], "groups": 1, "activation": "linear", "use_bias": true, "kernel_initializer": {"class_name": "GlorotUniform", "config": {"seed": null}}, "bias_initializer": {"class_name": "Zeros", "config": {}}, "kernel_regularizer": null, "bias_regularizer": null, "activity_regularizer": null, "kernel_constraint": null, "bias_constraint": null}, "name": "conv2d_13", "inbound_nodes": [[["re_lu_1", 0, 0, {}]]]}, {"class_name": "Conv2D", "config": {"name": "conv2d_14", "trainable": true, "dtype": "float32", "filters": 1, "kernel_size": [1, 1], "strides": [1, 1], "padding": "valid", "data_format": "channels_last", "dilation_rate": [1, 1], "groups": 1, "activation": "linear", "use_bias": true, "kernel_initializer": {"class_name": "GlorotUniform", "config": {"seed": null}}, "bias_initializer": {"class_name": "Zeros", "config": {}}, "kernel_regularizer": null, "bias_regularizer": null, "activity_regularizer": null, "kernel_constraint": null, "bias_constraint": null}, "name": "conv2d_14", "inbound_nodes": [[["concatenate", 0, 0, {}]]]}, {"class_name": "Conv2D", "config": {"name": "conv2d_16", "trainable": true, "dtype": "float32", "filters": 128, "kernel_size": [3, 3], "strides": [1, 1], "padding": "same", "data_format": "channels_last", "dilation_rate": [1, 1], "groups": 1, "activation": "linear", "use_bias": true, "kernel_initializer": {"class_name": "GlorotUniform", "config": {"seed": null}}, "bias_initializer": {"class_name": "Zeros", "config": {}}, "kernel_regularizer": null, "bias_regularizer": null, "activity_regularizer": null, "kernel_constraint": null, "bias_constraint": null}, "name": "conv2d_16", "inbound_nodes": [[["add", 0, 0, {}]]]}, {"class_name": "Conv2D", "config": {"name": "conv2d_6", "trainable": true, "dtype": "float32", "filters": 128, "kernel_size": [1, 1], "strides": [1, 1], "padding": "valid", "data_format": "channels_last", "dilation_rate": [1, 1], "groups": 1, "activation": "linear", "use_bias": true, "kernel_initializer": {"class_name": "GlorotUniform", "config": {"seed": null}}, "bias_initializer": {"class_name": "Zeros", "config": {}}, "kernel_regularizer": null, "bias_regularizer": null, "activity_regularizer": null, "kernel_constraint": null, "bias_constraint": null}, "name": "conv2d_6", "inbound_nodes": [[["add", 0, 0, {}]]]}, {"class_name": "TFOpLambda", "config": {"name": "tf.math.sigmoid", "trainable": true, "dtype": "float32", "function": "math.sigmoid"}, "name": "tf.math.sigmoid", "inbound_nodes": [[["conv2d_13", 0, 0, {}]]]}, {"class_name": "TFOpLambda", "config": {"name": "tf.math.sigmoid_1", "trainable": true, "dtype": "float32", "function": "math.sigmoid"}, "name": "tf.math.sigmoid_1", "inbound_nodes": [[["conv2d_14", 0, 0, {}]]]}, {"class_name": "ReLU", "config": {"name": "re_lu_2", "trainable": true, "dtype": "float32", "max_value": null, "negative_slope": 0.0, "threshold": 0.0}, "name": "re_lu_2", "inbound_nodes": [[["conv2d_16", 0, 0, {}]]]}, {"class_name": "TFOpLambda", "config": {"name": "tf.nn.relu_2", "trainable": true, "dtype": "float32", "function": "nn.relu"}, "name": "tf.nn.relu_2", "inbound_nodes": [[["conv2d_6", 0, 0, {"name": null}]]]}, {"class_name": "TFOpLambda", "config": {"name": "tf.math.multiply", "trainable": true, "dtype": "float32", "function": "math.multiply"}, "name": "tf.math.multiply", "inbound_nodes": [[["conv2d_11", 0, 0, {"y": ["tf.math.sigmoid", 0, 0], "name": null}]]]}, {"class_name": "TFOpLambda", "config": {"name": "tf.math.multiply_1", "trainable": true, "dtype": "float32", "function": "math.multiply"}, "name": "tf.math.multiply_1", "inbound_nodes": [[["conv2d_11", 0, 0, {"y": ["tf.math.sigmoid_1", 0, 0], "name": null}]]]}, {"class_name": "Conv2D", "config": {"name": "conv2d_17", "trainable": true, "dtype": "float32", "filters": 128, "kernel_size": [3, 3], "strides": [1, 1], "padding": "same", "data_format": "channels_last", "dilation_rate": [1, 1], "groups": 1, "activation": "linear", "use_bias": true, "kernel_initializer": {"class_name": "GlorotUniform", "config": {"seed": null}}, "bias_initializer": {"class_name": "Zeros", "config": {}}, "kernel_regularizer": null, "bias_regularizer": null, "activity_regularizer": null, "kernel_constraint": null, "bias_constraint": null}, "name": "conv2d_17", "inbound_nodes": [[["re_lu_2", 0, 0, {}]]]}, {"class_name": "Conv2D", "config": {"name": "conv2d_7", "trainable": true, "dtype": "float32", "filters": 128, "kernel_size": [3, 3], "strides": [1, 1], "padding": "same", "data_format": "channels_last", "dilation_rate": [1, 1], "groups": 1, "activation": "linear", "use_bias": true, "kernel_initializer": {"class_name": "GlorotUniform", "config": {"seed": null}}, "bias_initializer": {"class_name": "Zeros", "config": {}}, "kernel_regularizer": null, "bias_regularizer": null, "activity_regularizer": null, "kernel_constraint": null, "bias_constraint": null}, "name": "conv2d_7", "inbound_nodes": [[["tf.nn.relu_2", 0, 0, {}]]]}, {"class_name": "Concatenate", "config": {"name": "concatenate_1", "trainable": true, "dtype": "float32", "axis": -1}, "name": "concatenate_1", "inbound_nodes": [[["tf.math.multiply", 0, 0, {}], ["tf.math.multiply_1", 0, 0, {}]]]}, {"class_name": "GlobalAveragePooling2D", "config": {"name": "global_average_pooling2d_1", "trainable": true, "dtype": "float32", "data_format": "channels_last"}, "name": "global_average_pooling2d_1", "inbound_nodes": [[["conv2d_17", 0, 0, {}]]]}, {"class_name": "TFOpLambda", "config": {"name": "tf.nn.relu_3", "trainable": true, "dtype": "float32", "function": "nn.relu"}, "name": "tf.nn.relu_3", "inbound_nodes": [[["conv2d_7", 0, 0, {"name": null}]]]}, {"class_name": "Conv2D", "config": {"name": "conv2d_15", "trainable": true, "dtype": "float32", "filters": 64, "kernel_size": [1, 1], "strides": [1, 1], "padding": "valid", "data_format": "channels_last", "dilation_rate": [1, 1], "groups": 1, "activation": "linear", "use_bias": true, "kernel_initializer": {"class_name": "GlorotUniform", "config": {"seed": null}}, "bias_initializer": {"class_name": "Zeros", "config": {}}, "kernel_regularizer": null, "bias_regularizer": null, "activity_regularizer": null, "kernel_constraint": null, "bias_constraint": null}, "name": "conv2d_15", "inbound_nodes": [[["concatenate_1", 0, 0, {}]]]}, {"class_name": "TFOpLambda", "config": {"name": "tf.reshape_1", "trainable": true, "dtype": "float32", "function": "reshape"}, "name": "tf.reshape_1", "inbound_nodes": [[["global_average_pooling2d_1", 0, 0, {"shape": [-1, 1, 1, 128]}]]]}, {"class_name": "TFOpLambda", "config": {"name": "tf.math.reduce_max_1", "trainable": true, "dtype": "float32", "function": "math.reduce_max"}, "name": "tf.math.reduce_max_1", "inbound_nodes": [[["conv2d_17", 0, 0, {"axis": -1}]]]}, {"class_name": "TFOpLambda", "config": {"name": "tf.math.reduce_mean_1", "trainable": true, "dtype": "float32", "function": "math.reduce_mean"}, "name": "tf.math.reduce_mean_1", "inbound_nodes": [[["conv2d_17", 0, 0, {"axis": -1}]]]}, {"class_name": "MaxPooling2D", "config": {"name": "max_pooling2d_3", "trainable": true, "dtype": "float32", "pool_size": [2, 2], "padding": "valid", "strides": [2, 2], "data_format": "channels_last"}, "name": "max_pooling2d_3", "inbound_nodes": [[["add", 0, 0, {}]]]}, {"class_name": "MaxPooling2D", "config": {"name": "max_pooling2d_2", "trainable": true, "dtype": "float32", "pool_size": [2, 2], "padding": "valid", "strides": [2, 2], "data_format": "channels_last"}, "name": "max_pooling2d_2", "inbound_nodes": [[["tf.nn.relu_3", 0, 0, {}]]]}, {"class_name": "Add", "config": {"name": "add_2", "trainable": true, "dtype": "float32"}, "name": "add_2", "inbound_nodes": [[["conv2d_1", 0, 0, {}], ["conv2d_15", 0, 0, {}]]]}, {"class_name": "Conv2D", "config": {"name": "conv2d_18", "trainable": true, "dtype": "float32", "filters": 16, "kernel_size": [1, 1], "strides": [1, 1], "padding": "valid", "data_format": "channels_last", "dilation_rate": [1, 1], "groups": 1, "activation": "linear", "use_bias": true, "kernel_initializer": {"class_name": "GlorotUniform", "config": {"seed": null}}, "bias_initializer": {"class_name": "Zeros", "config": {}}, "kernel_regularizer": null, "bias_regularizer": null, "activity_regularizer": null, "kernel_constraint": null, "bias_constraint": null}, "name": "conv2d_18", "inbound_nodes": [[["tf.reshape_1", 0, 0, {}]]]}, {"class_name": "TFOpLambda", "config": {"name": "tf.expand_dims_2", "trainable": true, "dtype": "float32", "function": "expand_dims"}, "name": "tf.expand_dims_2", "inbound_nodes": [[["tf.math.reduce_max_1", 0, 0, {"axis": -1}]]]}, {"class_name": "TFOpLambda", "config": {"name": "tf.expand_dims_3", "trainable": true, "dtype": "float32", "function": "expand_dims"}, "name": "tf.expand_dims_3", "inbound_nodes": [[["tf.math.reduce_mean_1", 0, 0, {"axis": -1}]]]}, {"class_name": "Conv2D", "config": {"name": "conv2d_9", "trainable": true, "dtype": "float32", "filters": 256, "kernel_size": [1, 1], "strides": [1, 1], "padding": "valid", "data_format": "channels_last", "dilation_rate": [1, 1], "groups": 1, "activation": "linear", "use_bias": true, "kernel_initializer": {"class_name": "GlorotUniform", "config": {"seed": null}}, "bias_initializer": {"class_name": "Zeros", "config": {}}, "kernel_regularizer": null, "bias_regularizer": null, "activity_regularizer": null, "kernel_constraint": null, "bias_constraint": null}, "name": "conv2d_9", "inbound_nodes": [[["max_pooling2d_3", 0, 0, {}]]]}, {"class_name": "Conv2D", "config": {"name": "conv2d_8", "trainable": true, "dtype": "float32", "filters": 256, "kernel_size": [1, 1], "strides": [1, 1], "padding": "valid", "data_format": "channels_last", "dilation_rate": [1, 1], "groups": 1, "activation": "linear", "use_bias": true, "kernel_initializer": {"class_name": "GlorotUniform", "config": {"seed": null}}, "bias_initializer": {"class_name": "Zeros", "config": {}}, "kernel_regularizer": null, "bias_regularizer": null, "activity_regularizer": null, "kernel_constraint": null, "bias_constraint": null}, "name": "conv2d_8", "inbound_nodes": [[["max_pooling2d_2", 0, 0, {}]]]}, {"class_name": "ReLU", "config": {"name": "re_lu_3", "trainable": true, "dtype": "float32", "max_value": null, "negative_slope": 0.0, "threshold": 0.0}, "name": "re_lu_3", "inbound_nodes": [[["conv2d_18", 0, 0, {}]]]}, {"class_name": "Concatenate", "config": {"name": "concatenate_2", "trainable": true, "dtype": "float32", "axis": -1}, "name": "concatenate_2", "inbound_nodes": [[["tf.expand_dims_2", 0, 0, {}], ["tf.expand_dims_3", 0, 0, {}]]]}, {"class_name": "Add", "config": {"name": "add_1", "trainable": true, "dtype": "float32"}, "name": "add_1", "inbound_nodes": [[["conv2d_9", 0, 0, {}], ["conv2d_8", 0, 0, {}]]]}, {"class_name": "Conv2D", "config": {"name": "conv2d_56", "trainable": true, "dtype": "float32", "filters": 64, "kernel_size": [1, 1], "strides": [1, 1], "padding": "valid", "data_format": "channels_last", "dilation_rate": [1, 1], "groups": 1, "activation": "linear", "use_bias": true, "kernel_initializer": {"class_name": "GlorotUniform", "config": {"seed": null}}, "bias_initializer": {"class_name": "Zeros", "config": {}}, "kernel_regularizer": null, "bias_regularizer": null, "activity_regularizer": null, "kernel_constraint": null, "bias_constraint": null}, "name": "conv2d_56", "inbound_nodes": [[["add_2", 0, 0, {}]]]}, {"class_name": "Conv2D", "config": {"name": "conv2d_19", "trainable": true, "dtype": "float32", "filters": 128, "kernel_size": [1, 1], "strides": [1, 1], "padding": "valid", "data_format": "channels_last", "dilation_rate": [1, 1], "groups": 1, "activation": "linear", "use_bias": true, "kernel_initializer": {"class_name": "GlorotUniform", "config": {"seed": null}}, "bias_initializer": {"class_name": "Zeros", "config": {}}, "kernel_regularizer": null, "bias_regularizer": null, "activity_regularizer": null, "kernel_constraint": null, "bias_constraint": null}, "name": "conv2d_19", "inbound_nodes": [[["re_lu_3", 0, 0, {}]]]}, {"class_name": "Conv2D", "config": {"name": "conv2d_20", "trainable": true, "dtype": "float32", "filters": 1, "kernel_size": [1, 1], "strides": [1, 1], "padding": "valid", "data_format": "channels_last", "dilation_rate": [1, 1], "groups": 1, "activation": "linear", "use_bias": true, "kernel_initializer": {"class_name": "GlorotUniform", "config": {"seed": null}}, "bias_initializer": {"class_name": "Zeros", "config": {}}, "kernel_regularizer": null, "bias_regularizer": null, "activity_regularizer": null, "kernel_constraint": null, "bias_constraint": null}, "name": "conv2d_20", "inbound_nodes": [[["concatenate_2", 0, 0, {}]]]}, {"class_name": "Conv2D", "config": {"name": "conv2d_22", "trainable": true, "dtype": "float32", "filters": 256, "kernel_size": [3, 3], "strides": [1, 1], "padding": "same", "data_format": "channels_last", "dilation_rate": [1, 1], "groups": 1, "activation": "linear", "use_bias": true, "kernel_initializer": {"class_name": "GlorotUniform", "config": {"seed": null}}, "bias_initializer": {"class_name": "Zeros", "config": {}}, "kernel_regularizer": null, "bias_regularizer": null, "activity_regularizer": null, "kernel_constraint": null, "bias_constraint": null}, "name": "conv2d_22", "inbound_nodes": [[["add_1", 0, 0, {}]]]}, {"class_name": "TFOpLambda", "config": {"name": "tf.nn.relu_14", "trainable": true, "dtype": "float32", "function": "nn.relu"}, "name": "tf.nn.relu_14", "inbound_nodes": [[["conv2d_56", 0, 0, {"name": null}]]]}, {"class_name": "TFOpLambda", "config": {"name": "tf.math.sigmoid_2", "trainable": true, "dtype": "float32", "function": "math.sigmoid"}, "name": "tf.math.sigmoid_2", "inbound_nodes": [[["conv2d_19", 0, 0, {}]]]}, {"class_name": "TFOpLambda", "config": {"name": "tf.math.sigmoid_3", "trainable": true, "dtype": "float32", "function": "math.sigmoid"}, "name": "tf.math.sigmoid_3", "inbound_nodes": [[["conv2d_20", 0, 0, {}]]]}, {"class_name": "ReLU", "config": {"name": "re_lu_4", "trainable": true, "dtype": "float32", "max_value": null, "negative_slope": 0.0, "threshold": 0.0}, "name": "re_lu_4", "inbound_nodes": [[["conv2d_22", 0, 0, {}]]]}, {"class_name": "Conv2D", "config": {"name": "conv2d_57", "trainable": true, "dtype": "float32", "filters": 64, "kernel_size": [3, 3], "strides": [1, 1], "padding": "same", "data_format": "channels_last", "dilation_rate": [1, 1], "groups": 1, "activation": "linear", "use_bias": true, "kernel_initializer": {"class_name": "GlorotUniform", "config": {"seed": null}}, "bias_initializer": {"class_name": "Zeros", "config": {}}, "kernel_regularizer": null, "bias_regularizer": null, "activity_regularizer": null, "kernel_constraint": null, "bias_constraint": null}, "name": "conv2d_57", "inbound_nodes": [[["tf.nn.relu_14", 0, 0, {}]]]}, {"class_name": "TFOpLambda", "config": {"name": "tf.math.multiply_2", "trainable": true, "dtype": "float32", "function": "math.multiply"}, "name": "tf.math.multiply_2", "inbound_nodes": [[["conv2d_17", 0, 0, {"y": ["tf.math.sigmoid_2", 0, 0], "name": null}]]]}, {"class_name": "TFOpLambda", "config": {"name": "tf.math.multiply_3", "trainable": true, "dtype": "float32", "function": "math.multiply"}, "name": "tf.math.multiply_3", "inbound_nodes": [[["conv2d_17", 0, 0, {"y": ["tf.math.sigmoid_3", 0, 0], "name": null}]]]}, {"class_name": "Conv2D", "config": {"name": "conv2d_23", "trainable": true, "dtype": "float32", "filters": 256, "kernel_size": [3, 3], "strides": [1, 1], "padding": "same", "data_format": "channels_last", "dilation_rate": [1, 1], "groups": 1, "activation": "linear", "use_bias": true, "kernel_initializer": {"class_name": "GlorotUniform", "config": {"seed": null}}, "bias_initializer": {"class_name": "Zeros", "config": {}}, "kernel_regularizer": null, "bias_regularizer": null, "activity_regularizer": null, "kernel_constraint": null, "bias_constraint": null}, "name": "conv2d_23", "inbound_nodes": [[["re_lu_4", 0, 0, {}]]]}, {"class_name": "TFOpLambda", "config": {"name": "tf.nn.relu_15", "trainable": true, "dtype": "float32", "function": "nn.relu"}, "name": "tf.nn.relu_15", "inbound_nodes": [[["conv2d_57", 0, 0, {"name": null}]]]}, {"class_name": "Concatenate", "config": {"name": "concatenate_3", "trainable": true, "dtype": "float32", "axis": -1}, "name": "concatenate_3", "inbound_nodes": [[["tf.math.multiply_2", 0, 0, {}], ["tf.math.multiply_3", 0, 0, {}]]]}, {"class_name": "GlobalAveragePooling2D", "config": {"name": "global_average_pooling2d_2", "trainable": true, "dtype": "float32", "data_format": "channels_last"}, "name": "global_average_pooling2d_2", "inbound_nodes": [[["conv2d_23", 0, 0, {}]]]}, {"class_name": "MaxPooling2D", "config": {"name": "max_pooling2d_7", "trainable": true, "dtype": "float32", "pool_size": [2, 2], "padding": "valid", "strides": [2, 2], "data_format": "channels_last"}, "name": "max_pooling2d_7", "inbound_nodes": [[["add_2", 0, 0, {}]]]}, {"class_name": "MaxPooling2D", "config": {"name": "max_pooling2d_6", "trainable": true, "dtype": "float32", "pool_size": [2, 2], "padding": "valid", "strides": [2, 2], "data_format": "channels_last"}, "name": "max_pooling2d_6", "inbound_nodes": [[["tf.nn.relu_15", 0, 0, {}]]]}, {"class_name": "Conv2D", "config": {"name": "conv2d_21", "trainable": true, "dtype": "float32", "filters": 128, "kernel_size": [1, 1], "strides": [1, 1], "padding": "valid", "data_format": "channels_last", "dilation_rate": [1, 1], "groups": 1, "activation": "linear", "use_bias": true, "kernel_initializer": {"class_name": "GlorotUniform", "config": {"seed": null}}, "bias_initializer": {"class_name": "Zeros", "config": {}}, "kernel_regularizer": null, "bias_regularizer": null, "activity_regularizer": null, "kernel_constraint": null, "bias_constraint": null}, "name": "conv2d_21", "inbound_nodes": [[["concatenate_3", 0, 0, {}]]]}, {"class_name": "TFOpLambda", "config": {"name": "tf.reshape_2", "trainable": true, "dtype": "float32", "function": "reshape"}, "name": "tf.reshape_2", "inbound_nodes": [[["global_average_pooling2d_2", 0, 0, {"shape": [-1, 1, 1, 256]}]]]}, {"class_name": "TFOpLambda", "config": {"name": "tf.math.reduce_max_2", "trainable": true, "dtype": "float32", "function": "math.reduce_max"}, "name": "tf.math.reduce_max_2", "inbound_nodes": [[["conv2d_23", 0, 0, {"axis": -1}]]]}, {"class_name": "TFOpLambda", "config": {"name": "tf.math.reduce_mean_2", "trainable": true, "dtype": "float32", "function": "math.reduce_mean"}, "name": "tf.math.reduce_mean_2", "inbound_nodes": [[["conv2d_23", 0, 0, {"axis": -1}]]]}, {"class_name": "Conv2D", "config": {"name": "conv2d_59", "trainable": true, "dtype": "float32", "filters": 128, "kernel_size": [1, 1], "strides": [1, 1], "padding": "valid", "data_format": "channels_last", "dilation_rate": [1, 1], "groups": 1, "activation": "linear", "use_bias": true, "kernel_initializer": {"class_name": "GlorotUniform", "config": {"seed": null}}, "bias_initializer": {"class_name": "Zeros", "config": {}}, "kernel_regularizer": null, "bias_regularizer": null, "activity_regularizer": null, "kernel_constraint": null, "bias_constraint": null}, "name": "conv2d_59", "inbound_nodes": [[["max_pooling2d_7", 0, 0, {}]]]}, {"class_name": "Conv2D", "config": {"name": "conv2d_58", "trainable": true, "dtype": "float32", "filters": 128, "kernel_size": [1, 1], "strides": [1, 1], "padding": "valid", "data_format": "channels_last", "dilation_rate": [1, 1], "groups": 1, "activation": "linear", "use_bias": true, "kernel_initializer": {"class_name": "GlorotUniform", "config": {"seed": null}}, "bias_initializer": {"class_name": "Zeros", "config": {}}, "kernel_regularizer": null, "bias_regularizer": null, "activity_regularizer": null, "kernel_constraint": null, "bias_constraint": null}, "name": "conv2d_58", "inbound_nodes": [[["max_pooling2d_6", 0, 0, {}]]]}, {"class_name": "Add", "config": {"name": "add_3", "trainable": true, "dtype": "float32"}, "name": "add_3", "inbound_nodes": [[["add", 0, 0, {}], ["conv2d_21", 0, 0, {}]]]}, {"class_name": "Conv2D", "config": {"name": "conv2d_24", "trainable": true, "dtype": "float32", "filters": 32, "kernel_size": [1, 1], "strides": [1, 1], "padding": "valid", "data_format": "channels_last", "dilation_rate": [1, 1], "groups": 1, "activation": "linear", "use_bias": true, "kernel_initializer": {"class_name": "GlorotUniform", "config": {"seed": null}}, "bias_initializer": {"class_name": "Zeros", "config": {}}, "kernel_regularizer": null, "bias_regularizer": null, "activity_regularizer": null, "kernel_constraint": null, "bias_constraint": null}, "name": "conv2d_24", "inbound_nodes": [[["tf.reshape_2", 0, 0, {}]]]}, {"class_name": "TFOpLambda", "config": {"name": "tf.expand_dims_4", "trainable": true, "dtype": "float32", "function": "expand_dims"}, "name": "tf.expand_dims_4", "inbound_nodes": [[["tf.math.reduce_max_2", 0, 0, {"axis": -1}]]]}, {"class_name": "TFOpLambda", "config": {"name": "tf.expand_dims_5", "trainable": true, "dtype": "float32", "function": "expand_dims"}, "name": "tf.expand_dims_5", "inbound_nodes": [[["tf.math.reduce_mean_2", 0, 0, {"axis": -1}]]]}, {"class_name": "Add", "config": {"name": "add_14", "trainable": true, "dtype": "float32"}, "name": "add_14", "inbound_nodes": [[["conv2d_59", 0, 0, {}], ["conv2d_58", 0, 0, {}]]]}, {"class_name": "ReLU", "config": {"name": "re_lu_5", "trainable": true, "dtype": "float32", "max_value": null, "negative_slope": 0.0, "threshold": 0.0}, "name": "re_lu_5", "inbound_nodes": [[["conv2d_24", 0, 0, {}]]]}, {"class_name": "Concatenate", "config": {"name": "concatenate_4", "trainable": true, "dtype": "float32", "axis": -1}, "name": "concatenate_4", "inbound_nodes": [[["tf.expand_dims_4", 0, 0, {}], ["tf.expand_dims_5", 0, 0, {}]]]}, {"class_name": "Conv2D", "config": {"name": "conv2d_60", "trainable": true, "dtype": "float32", "filters": 128, "kernel_size": [1, 1], "strides": [1, 1], "padding": "valid", "data_format": "channels_last", "dilation_rate": [1, 1], "groups": 1, "activation": "linear", "use_bias": true, "kernel_initializer": {"class_name": "GlorotUniform", "config": {"seed": null}}, "bias_initializer": {"class_name": "Zeros", "config": {}}, "kernel_regularizer": null, "bias_regularizer": null, "activity_regularizer": null, "kernel_constraint": null, "bias_constraint": null}, "name": "conv2d_60", "inbound_nodes": [[["add_14", 0, 0, {}]]]}, {"class_name": "Conv2D", "config": {"name": "conv2d_64", "trainable": true, "dtype": "float32", "filters": 128, "kernel_size": [1, 1], "strides": [1, 1], "padding": "valid", "data_format": "channels_last", "dilation_rate": [1, 1], "groups": 1, "activation": "linear", "use_bias": true, "kernel_initializer": {"class_name": "GlorotUniform", "config": {"seed": null}}, "bias_initializer": {"class_name": "Zeros", "config": {}}, "kernel_regularizer": null, "bias_regularizer": null, "activity_regularizer": null, "kernel_constraint": null, "bias_constraint": null}, "name": "conv2d_64", "inbound_nodes": [[["add_3", 0, 0, {}]]]}, {"class_name": "Conv2D", "config": {"name": "conv2d_25", "trainable": true, "dtype": "float32", "filters": 256, "kernel_size": [1, 1], "strides": [1, 1], "padding": "valid", "data_format": "channels_last", "dilation_rate": [1, 1], "groups": 1, "activation": "linear", "use_bias": true, "kernel_initializer": {"class_name": "GlorotUniform", "config": {"seed": null}}, "bias_initializer": {"class_name": "Zeros", "config": {}}, "kernel_regularizer": null, "bias_regularizer": null, "activity_regularizer": null, "kernel_constraint": null, "bias_constraint": null}, "name": "conv2d_25", "inbound_nodes": [[["re_lu_5", 0, 0, {}]]]}, {"class_name": "Conv2D", "config": {"name": "conv2d_26", "trainable": true, "dtype": "float32", "filters": 1, "kernel_size": [1, 1], "strides": [1, 1], "padding": "valid", "data_format": "channels_last", "dilation_rate": [1, 1], "groups": 1, "activation": "linear", "use_bias": true, "kernel_initializer": {"class_name": "GlorotUniform", "config": {"seed": null}}, "bias_initializer": {"class_name": "Zeros", "config": {}}, "kernel_regularizer": null, "bias_regularizer": null, "activity_regularizer": null, "kernel_constraint": null, "bias_constraint": null}, "name": "conv2d_26", "inbound_nodes": [[["concatenate_4", 0, 0, {}]]]}, {"class_name": "TFOpLambda", "config": {"name": "tf.nn.relu_16", "trainable": true, "dtype": "float32", "function": "nn.relu"}, "name": "tf.nn.relu_16", "inbound_nodes": [[["conv2d_60", 0, 0, {"name": null}]]]}, {"class_name": "TFOpLambda", "config": {"name": "tf.nn.relu_18", "trainable": true, "dtype": "float32", "function": "nn.relu"}, "name": "tf.nn.relu_18", "inbound_nodes": [[["conv2d_64", 0, 0, {"name": null}]]]}, {"class_name": "TFOpLambda", "config": {"name": "tf.math.sigmoid_4", "trainable": true, "dtype": "float32", "function": "math.sigmoid"}, "name": "tf.math.sigmoid_4", "inbound_nodes": [[["conv2d_25", 0, 0, {}]]]}, {"class_name": "TFOpLambda", "config": {"name": "tf.math.sigmoid_5", "trainable": true, "dtype": "float32", "function": "math.sigmoid"}, "name": "tf.math.sigmoid_5", "inbound_nodes": [[["conv2d_26", 0, 0, {}]]]}, {"class_name": "Conv2D", "config": {"name": "conv2d_61", "trainable": true, "dtype": "float32", "filters": 128, "kernel_size": [3, 3], "strides": [1, 1], "padding": "same", "data_format": "channels_last", "dilation_rate": [1, 1], "groups": 1, "activation": "linear", "use_bias": true, "kernel_initializer": {"class_name": "GlorotUniform", "config": {"seed": null}}, "bias_initializer": {"class_name": "Zeros", "config": {}}, "kernel_regularizer": null, "bias_regularizer": null, "activity_regularizer": null, "kernel_constraint": null, "bias_constraint": null}, "name": "conv2d_61", "inbound_nodes": [[["tf.nn.relu_16", 0, 0, {}]]]}, {"class_name": "Conv2D", "config": {"name": "conv2d_65", "trainable": true, "dtype": "float32", "filters": 128, "kernel_size": [3, 3], "strides": [1, 1], "padding": "same", "data_format": "channels_last", "dilation_rate": [1, 1], "groups": 1, "activation": "linear", "use_bias": true, "kernel_initializer": {"class_name": "GlorotUniform", "config": {"seed": null}}, "bias_initializer": {"class_name": "Zeros", "config": {}}, "kernel_regularizer": null, "bias_regularizer": null, "activity_regularizer": null, "kernel_constraint": null, "bias_constraint": null}, "name": "conv2d_65", "inbound_nodes": [[["tf.nn.relu_18", 0, 0, {}]]]}, {"class_name": "TFOpLambda", "config": {"name": "tf.math.multiply_4", "trainable": true, "dtype": "float32", "function": "math.multiply"}, "name": "tf.math.multiply_4", "inbound_nodes": [[["conv2d_23", 0, 0, {"y": ["tf.math.sigmoid_4", 0, 0], "name": null}]]]}, {"class_name": "TFOpLambda", "config": {"name": "tf.math.multiply_5", "trainable": true, "dtype": "float32", "function": "math.multiply"}, "name": "tf.math.multiply_5", "inbound_nodes": [[["conv2d_23", 0, 0, {"y": ["tf.math.sigmoid_5", 0, 0], "name": null}]]]}, {"class_name": "TFOpLambda", "config": {"name": "tf.nn.relu_17", "trainable": true, "dtype": "float32", "function": "nn.relu"}, "name": "tf.nn.relu_17", "inbound_nodes": [[["conv2d_61", 0, 0, {"name": null}]]]}, {"class_name": "TFOpLambda", "config": {"name": "tf.nn.relu_19", "trainable": true, "dtype": "float32", "function": "nn.relu"}, "name": "tf.nn.relu_19", "inbound_nodes": [[["conv2d_65", 0, 0, {"name": null}]]]}, {"class_name": "Concatenate", "config": {"name": "concatenate_5", "trainable": true, "dtype": "float32", "axis": -1}, "name": "concatenate_5", "inbound_nodes": [[["tf.math.multiply_4", 0, 0, {}], ["tf.math.multiply_5", 0, 0, {}]]]}, {"class_name": "MaxPooling2D", "config": {"name": "max_pooling2d_9", "trainable": true, "dtype": "float32", "pool_size": [2, 2], "padding": "valid", "strides": [2, 2], "data_format": "channels_last"}, "name": "max_pooling2d_9", "inbound_nodes": [[["add_14", 0, 0, {}]]]}, {"class_name": "MaxPooling2D", "config": {"name": "max_pooling2d_8", "trainable": true, "dtype": "float32", "pool_size": [2, 2], "padding": "valid", "strides": [2, 2], "data_format": "channels_last"}, "name": "max_pooling2d_8", "inbound_nodes": [[["tf.nn.relu_17", 0, 0, {}]]]}, {"class_name": "MaxPooling2D", "config": {"name": "max_pooling2d_11", "trainable": true, "dtype": "float32", "pool_size": [2, 2], "padding": "valid", "strides": [2, 2], "data_format": "channels_last"}, "name": "max_pooling2d_11", "inbound_nodes": [[["add_3", 0, 0, {}]]]}, {"class_name": "MaxPooling2D", "config": {"name": "max_pooling2d_10", "trainable": true, "dtype": "float32", "pool_size": [2, 2], "padding": "valid", "strides": [2, 2], "data_format": "channels_last"}, "name": "max_pooling2d_10", "inbound_nodes": [[["tf.nn.relu_19", 0, 0, {}]]]}, {"class_name": "Conv2D", "config": {"name": "conv2d_27", "trainable": true, "dtype": "float32", "filters": 256, "kernel_size": [1, 1], "strides": [1, 1], "padding": "valid", "data_format": "channels_last", "dilation_rate": [1, 1], "groups": 1, "activation": "linear", "use_bias": true, "kernel_initializer": {"class_name": "GlorotUniform", "config": {"seed": null}}, "bias_initializer": {"class_name": "Zeros", "config": {}}, "kernel_regularizer": null, "bias_regularizer": null, "activity_regularizer": null, "kernel_constraint": null, "bias_constraint": null}, "name": "conv2d_27", "inbound_nodes": [[["concatenate_5", 0, 0, {}]]]}, {"class_name": "Conv2D", "config": {"name": "conv2d_63", "trainable": true, "dtype": "float32", "filters": 256, "kernel_size": [1, 1], "strides": [1, 1], "padding": "valid", "data_format": "channels_last", "dilation_rate": [1, 1], "groups": 1, "activation": "linear", "use_bias": true, "kernel_initializer": {"class_name": "GlorotUniform", "config": {"seed": null}}, "bias_initializer": {"class_name": "Zeros", "config": {}}, "kernel_regularizer": null, "bias_regularizer": null, "activity_regularizer": null, "kernel_constraint": null, "bias_constraint": null}, "name": "conv2d_63", "inbound_nodes": [[["max_pooling2d_9", 0, 0, {}]]]}, {"class_name": "Conv2D", "config": {"name": "conv2d_62", "trainable": true, "dtype": "float32", "filters": 256, "kernel_size": [1, 1], "strides": [1, 1], "padding": "valid", "data_format": "channels_last", "dilation_rate": [1, 1], "groups": 1, "activation": "linear", "use_bias": true, "kernel_initializer": {"class_name": "GlorotUniform", "config": {"seed": null}}, "bias_initializer": {"class_name": "Zeros", "config": {}}, "kernel_regularizer": null, "bias_regularizer": null, "activity_regularizer": null, "kernel_constraint": null, "bias_constraint": null}, "name": "conv2d_62", "inbound_nodes": [[["max_pooling2d_8", 0, 0, {}]]]}, {"class_name": "Conv2D", "config": {"name": "conv2d_67", "trainable": true, "dtype": "float32", "filters": 256, "kernel_size": [1, 1], "strides": [1, 1], "padding": "valid", "data_format": "channels_last", "dilation_rate": [1, 1], "groups": 1, "activation": "linear", "use_bias": true, "kernel_initializer": {"class_name": "GlorotUniform", "config": {"seed": null}}, "bias_initializer": {"class_name": "Zeros", "config": {}}, "kernel_regularizer": null, "bias_regularizer": null, "activity_regularizer": null, "kernel_constraint": null, "bias_constraint": null}, "name": "conv2d_67", "inbound_nodes": [[["max_pooling2d_11", 0, 0, {}]]]}, {"class_name": "Conv2D", "config": {"name": "conv2d_66", "trainable": true, "dtype": "float32", "filters": 256, "kernel_size": [1, 1], "strides": [1, 1], "padding": "valid", "data_format": "channels_last", "dilation_rate": [1, 1], "groups": 1, "activation": "linear", "use_bias": true, "kernel_initializer": {"class_name": "GlorotUniform", "config": {"seed": null}}, "bias_initializer": {"class_name": "Zeros", "config": {}}, "kernel_regularizer": null, "bias_regularizer": null, "activity_regularizer": null, "kernel_constraint": null, "bias_constraint": null}, "name": "conv2d_66", "inbound_nodes": [[["max_pooling2d_10", 0, 0, {}]]]}, {"class_name": "Add", "config": {"name": "add_4", "trainable": true, "dtype": "float32"}, "name": "add_4", "inbound_nodes": [[["add_1", 0, 0, {}], ["conv2d_27", 0, 0, {}]]]}, {"class_name": "Add", "config": {"name": "add_15", "trainable": true, "dtype": "float32"}, "name": "add_15", "inbound_nodes": [[["conv2d_63", 0, 0, {}], ["conv2d_62", 0, 0, {}]]]}, {"class_name": "Add", "config": {"name": "add_16", "trainable": true, "dtype": "float32"}, "name": "add_16", "inbound_nodes": [[["conv2d_67", 0, 0, {}], ["conv2d_66", 0, 0, {}]]]}, {"class_name": "Conv2D", "config": {"name": "conv2d_32", "trainable": true, "dtype": "float32", "filters": 256, "kernel_size": [1, 1], "strides": [1, 1], "padding": "valid", "data_format": "channels_last", "dilation_rate": [1, 1], "groups": 1, "activation": "linear", "use_bias": true, "kernel_initializer": {"class_name": "GlorotUniform", "config": {"seed": null}}, "bias_initializer": {"class_name": "Zeros", "config": {}}, "kernel_regularizer": null, "bias_regularizer": null, "activity_regularizer": null, "kernel_constraint": null, "bias_constraint": null}, "name": "conv2d_32", "inbound_nodes": [[["add_4", 0, 0, {}]]]}, {"class_name": "Add", "config": {"name": "add_17", "trainable": true, "dtype": "float32"}, "name": "add_17", "inbound_nodes": [[["add_15", 0, 0, {}], ["add_16", 0, 0, {}], ["add_4", 0, 0, {}]]]}, {"class_name": "TFOpLambda", "config": {"name": "tf.nn.relu_6", "trainable": true, "dtype": "float32", "function": "nn.relu"}, "name": "tf.nn.relu_6", "inbound_nodes": [[["conv2d_32", 0, 0, {"name": null}]]]}, {"class_name": "GlobalAveragePooling2D", "config": {"name": "global_average_pooling2d_5", "trainable": true, "dtype": "float32", "data_format": "channels_last"}, "name": "global_average_pooling2d_5", "inbound_nodes": [[["add_17", 0, 0, {}]]]}, {"class_name": "Conv2D", "config": {"name": "conv2d_33", "trainable": true, "dtype": "float32", "filters": 256, "kernel_size": [3, 3], "strides": [1, 1], "padding": "same", "data_format": "channels_last", "dilation_rate": [1, 1], "groups": 1, "activation": "linear", "use_bias": true, "kernel_initializer": {"class_name": "GlorotUniform", "config": {"seed": null}}, "bias_initializer": {"class_name": "Zeros", "config": {}}, "kernel_regularizer": null, "bias_regularizer": null, "activity_regularizer": null, "kernel_constraint": null, "bias_constraint": null}, "name": "conv2d_33", "inbound_nodes": [[["tf.nn.relu_6", 0, 0, {}]]]}, {"class_name": "TFOpLambda", "config": {"name": "tf.reshape_5", "trainable": true, "dtype": "float32", "function": "reshape"}, "name": "tf.reshape_5", "inbound_nodes": [[["global_average_pooling2d_5", 0, 0, {"shape": [-1, 1, 1, 256]}]]]}, {"class_name": "TFOpLambda", "config": {"name": "tf.nn.relu_7", "trainable": true, "dtype": "float32", "function": "nn.relu"}, "name": "tf.nn.relu_7", "inbound_nodes": [[["conv2d_33", 0, 0, {"name": null}]]]}, {"class_name": "Conv2D", "config": {"name": "conv2d_68", "trainable": true, "dtype": "float32", "filters": 32, "kernel_size": [1, 1], "strides": [1, 1], "padding": "valid", "data_format": "channels_last", "dilation_rate": [1, 1], "groups": 1, "activation": "linear", "use_bias": true, "kernel_initializer": {"class_name": "GlorotUniform", "config": {"seed": null}}, "bias_initializer": {"class_name": "Zeros", "config": {}}, "kernel_regularizer": null, "bias_regularizer": null, "activity_regularizer": null, "kernel_constraint": null, "bias_constraint": null}, "name": "conv2d_68", "inbound_nodes": [[["tf.reshape_5", 0, 0, {}]]]}, {"class_name": "UpSampling2D", "config": {"name": "up_sampling2d_3", "trainable": true, "dtype": "float32", "size": [2, 2], "data_format": "channels_last", "interpolation": "nearest"}, "name": "up_sampling2d_3", "inbound_nodes": [[["add_4", 0, 0, {}]]]}, {"class_name": "UpSampling2D", "config": {"name": "up_sampling2d_2", "trainable": true, "dtype": "float32", "size": [2, 2], "data_format": "channels_last", "interpolation": "nearest"}, "name": "up_sampling2d_2", "inbound_nodes": [[["tf.nn.relu_7", 0, 0, {}]]]}, {"class_name": "ReLU", "config": {"name": "re_lu_8", "trainable": true, "dtype": "float32", "max_value": null, "negative_slope": 0.0, "threshold": 0.0}, "name": "re_lu_8", "inbound_nodes": [[["conv2d_68", 0, 0, {}]]]}, {"class_name": "Conv2D", "config": {"name": "conv2d_35", "trainable": true, "dtype": "float32", "filters": 128, "kernel_size": [1, 1], "strides": [1, 1], "padding": "valid", "data_format": "channels_last", "dilation_rate": [1, 1], "groups": 1, "activation": "linear", "use_bias": true, "kernel_initializer": {"class_name": "GlorotUniform", "config": {"seed": null}}, "bias_initializer": {"class_name": "Zeros", "config": {}}, "kernel_regularizer": null, "bias_regularizer": null, "activity_regularizer": null, "kernel_constraint": null, "bias_constraint": null}, "name": "conv2d_35", "inbound_nodes": [[["up_sampling2d_3", 0, 0, {}]]]}, {"class_name": "Conv2D", "config": {"name": "conv2d_34", "trainable": true, "dtype": "float32", "filters": 128, "kernel_size": [1, 1], "strides": [1, 1], "padding": "valid", "data_format": "channels_last", "dilation_rate": [1, 1], "groups": 1, "activation": "linear", "use_bias": true, "kernel_initializer": {"class_name": "GlorotUniform", "config": {"seed": null}}, "bias_initializer": {"class_name": "Zeros", "config": {}}, "kernel_regularizer": null, "bias_regularizer": null, "activity_regularizer": null, "kernel_constraint": null, "bias_constraint": null}, "name": "conv2d_34", "inbound_nodes": [[["up_sampling2d_2", 0, 0, {}]]]}, {"class_name": "Conv2D", "config": {"name": "conv2d_69", "trainable": true, "dtype": "float32", "filters": 256, "kernel_size": [1, 1], "strides": [1, 1], "padding": "valid", "data_format": "channels_last", "dilation_rate": [1, 1], "groups": 1, "activation": "linear", "use_bias": true, "kernel_initializer": {"class_name": "GlorotUniform", "config": {"seed": null}}, "bias_initializer": {"class_name": "Zeros", "config": {}}, "kernel_regularizer": null, "bias_regularizer": null, "activity_regularizer": null, "kernel_constraint": null, "bias_constraint": null}, "name": "conv2d_69", "inbound_nodes": [[["re_lu_8", 0, 0, {}]]]}, {"class_name": "Conv2D", "config": {"name": "conv2d_70", "trainable": true, "dtype": "float32", "filters": 256, "kernel_size": [1, 1], "strides": [1, 1], "padding": "valid", "data_format": "channels_last", "dilation_rate": [1, 1], "groups": 1, "activation": "linear", "use_bias": true, "kernel_initializer": {"class_name": "GlorotUniform", "config": {"seed": null}}, "bias_initializer": {"class_name": "Zeros", "config": {}}, "kernel_regularizer": null, "bias_regularizer": null, "activity_regularizer": null, "kernel_constraint": null, "bias_constraint": null}, "name": "conv2d_70", "inbound_nodes": [[["re_lu_8", 0, 0, {}]]]}, {"class_name": "Conv2D", "config": {"name": "conv2d_71", "trainable": true, "dtype": "float32", "filters": 256, "kernel_size": [1, 1], "strides": [1, 1], "padding": "valid", "data_format": "channels_last", "dilation_rate": [1, 1], "groups": 1, "activation": "linear", "use_bias": true, "kernel_initializer": {"class_name": "GlorotUniform", "config": {"seed": null}}, "bias_initializer": {"class_name": "Zeros", "config": {}}, "kernel_regularizer": null, "bias_regularizer": null, "activity_regularizer": null, "kernel_constraint": null, "bias_constraint": null}, "name": "conv2d_71", "inbound_nodes": [[["re_lu_8", 0, 0, {}]]]}, {"class_name": "Add", "config": {"name": "add_6", "trainable": true, "dtype": "float32"}, "name": "add_6", "inbound_nodes": [[["conv2d_35", 0, 0, {}], ["conv2d_34", 0, 0, {}]]]}, {"class_name": "TFOpLambda", "config": {"name": "tf.nn.softmax_6", "trainable": true, "dtype": "float32", "function": "nn.softmax"}, "name": "tf.nn.softmax_6", "inbound_nodes": [[["conv2d_69", 0, 0, {}]]]}, {"class_name": "TFOpLambda", "config": {"name": "tf.nn.softmax_7", "trainable": true, "dtype": "float32", "function": "nn.softmax"}, "name": "tf.nn.softmax_7", "inbound_nodes": [[["conv2d_70", 0, 0, {}]]]}, {"class_name": "TFOpLambda", "config": {"name": "tf.nn.softmax_8", "trainable": true, "dtype": "float32", "function": "nn.softmax"}, "name": "tf.nn.softmax_8", "inbound_nodes": [[["conv2d_71", 0, 0, {}]]]}, {"class_name": "Conv2D", "config": {"name": "conv2d_28", "trainable": true, "dtype": "float32", "filters": 128, "kernel_size": [1, 1], "strides": [1, 1], "padding": "valid", "data_format": "channels_last", "dilation_rate": [1, 1], "groups": 1, "activation": "linear", "use_bias": true, "kernel_initializer": {"class_name": "GlorotUniform", "config": {"seed": null}}, "bias_initializer": {"class_name": "Zeros", "config": {}}, "kernel_regularizer": null, "bias_regularizer": null, "activity_regularizer": null, "kernel_constraint": null, "bias_constraint": null}, "name": "conv2d_28", "inbound_nodes": [[["add_3", 0, 0, {}]]]}, {"class_name": "Conv2D", "config": {"name": "conv2d_36", "trainable": true, "dtype": "float32", "filters": 128, "kernel_size": [1, 1], "strides": [1, 1], "padding": "valid", "data_format": "channels_last", "dilation_rate": [1, 1], "groups": 1, "activation": "linear", "use_bias": true, "kernel_initializer": {"class_name": "GlorotUniform", "config": {"seed": null}}, "bias_initializer": {"class_name": "Zeros", "config": {}}, "kernel_regularizer": null, "bias_regularizer": null, "activity_regularizer": null, "kernel_constraint": null, "bias_constraint": null}, "name": "conv2d_36", "inbound_nodes": [[["add_6", 0, 0, {}]]]}, {"class_name": "TFOpLambda", "config": {"name": "tf.math.multiply_12", "trainable": true, "dtype": "float32", "function": "math.multiply"}, "name": "tf.math.multiply_12", "inbound_nodes": [[["add_15", 0, 0, {"y": ["tf.nn.softmax_6", 0, 0], "name": null}]]]}, {"class_name": "TFOpLambda", "config": {"name": "tf.math.multiply_13", "trainable": true, "dtype": "float32", "function": "math.multiply"}, "name": "tf.math.multiply_13", "inbound_nodes": [[["add_16", 0, 0, {"y": ["tf.nn.softmax_7", 0, 0], "name": null}]]]}, {"class_name": "TFOpLambda", "config": {"name": "tf.math.multiply_14", "trainable": true, "dtype": "float32", "function": "math.multiply"}, "name": "tf.math.multiply_14", "inbound_nodes": [[["add_4", 0, 0, {"y": ["tf.nn.softmax_8", 0, 0], "name": null}]]]}, {"class_name": "TFOpLambda", "config": {"name": "tf.nn.relu_4", "trainable": true, "dtype": "float32", "function": "nn.relu"}, "name": "tf.nn.relu_4", "inbound_nodes": [[["conv2d_28", 0, 0, {"name": null}]]]}, {"class_name": "TFOpLambda", "config": {"name": "tf.nn.relu_8", "trainable": true, "dtype": "float32", "function": "nn.relu"}, "name": "tf.nn.relu_8", "inbound_nodes": [[["conv2d_36", 0, 0, {"name": null}]]]}, {"class_name": "Add", "config": {"name": "add_18", "trainable": true, "dtype": "float32"}, "name": "add_18", "inbound_nodes": [[["tf.math.multiply_12", 0, 0, {}], ["tf.math.multiply_13", 0, 0, {}], ["tf.math.multiply_14", 0, 0, {}]]]}, {"class_name": "Conv2D", "config": {"name": "conv2d_29", "trainable": true, "dtype": "float32", "filters": 128, "kernel_size": [3, 3], "strides": [1, 1], "padding": "same", "data_format": "channels_last", "dilation_rate": [1, 1], "groups": 1, "activation": "linear", "use_bias": true, "kernel_initializer": {"class_name": "GlorotUniform", "config": {"seed": null}}, "bias_initializer": {"class_name": "Zeros", "config": {}}, "kernel_regularizer": null, "bias_regularizer": null, "activity_regularizer": null, "kernel_constraint": null, "bias_constraint": null}, "name": "conv2d_29", "inbound_nodes": [[["tf.nn.relu_4", 0, 0, {}]]]}, {"class_name": "Conv2D", "config": {"name": "conv2d_37", "trainable": true, "dtype": "float32", "filters": 128, "kernel_size": [3, 3], "strides": [1, 1], "padding": "same", "data_format": "channels_last", "dilation_rate": [1, 1], "groups": 1, "activation": "linear", "use_bias": true, "kernel_initializer": {"class_name": "GlorotUniform", "config": {"seed": null}}, "bias_initializer": {"class_name": "Zeros", "config": {}}, "kernel_regularizer": null, "bias_regularizer": null, "activity_regularizer": null, "kernel_constraint": null, "bias_constraint": null}, "name": "conv2d_37", "inbound_nodes": [[["tf.nn.relu_8", 0, 0, {}]]]}, {"class_name": "Conv2D", "config": {"name": "conv2d_88", "trainable": true, "dtype": "float32", "filters": 256, "kernel_size": [3, 3], "strides": [1, 1], "padding": "same", "data_format": "channels_last", "dilation_rate": [1, 1], "groups": 1, "activation": "linear", "use_bias": true, "kernel_initializer": {"class_name": "GlorotUniform", "config": {"seed": null}}, "bias_initializer": {"class_name": "Zeros", "config": {}}, "kernel_regularizer": null, "bias_regularizer": null, "activity_regularizer": null, "kernel_constraint": null, "bias_constraint": null}, "name": "conv2d_88", "inbound_nodes": [[["add_18", 0, 0, {}]]]}, {"class_name": "TFOpLambda", "config": {"name": "tf.nn.relu_5", "trainable": true, "dtype": "float32", "function": "nn.relu"}, "name": "tf.nn.relu_5", "inbound_nodes": [[["conv2d_29", 0, 0, {"name": null}]]]}, {"class_name": "TFOpLambda", "config": {"name": "tf.nn.relu_9", "trainable": true, "dtype": "float32", "function": "nn.relu"}, "name": "tf.nn.relu_9", "inbound_nodes": [[["conv2d_37", 0, 0, {"name": null}]]]}, {"class_name": "ReLU", "config": {"name": "re_lu_13", "trainable": true, "dtype": "float32", "max_value": null, "negative_slope": 0.0, "threshold": 0.0}, "name": "re_lu_13", "inbound_nodes": [[["conv2d_88", 0, 0, {}]]]}, {"class_name": "UpSampling2D", "config": {"name": "up_sampling2d_1", "trainable": true, "dtype": "float32", "size": [2, 2], "data_format": "channels_last", "interpolation": "nearest"}, "name": "up_sampling2d_1", "inbound_nodes": [[["add_3", 0, 0, {}]]]}, {"class_name": "UpSampling2D", "config": {"name": "up_sampling2d", "trainable": true, "dtype": "float32", "size": [2, 2], "data_format": "channels_last", "interpolation": "nearest"}, "name": "up_sampling2d", "inbound_nodes": [[["tf.nn.relu_5", 0, 0, {}]]]}, {"class_name": "UpSampling2D", "config": {"name": "up_sampling2d_5", "trainable": true, "dtype": "float32", "size": [2, 2], "data_format": "channels_last", "interpolation": "nearest"}, "name": "up_sampling2d_5", "inbound_nodes": [[["add_6", 0, 0, {}]]]}, {"class_name": "UpSampling2D", "config": {"name": "up_sampling2d_4", "trainable": true, "dtype": "float32", "size": [2, 2], "data_format": "channels_last", "interpolation": "nearest"}, "name": "up_sampling2d_4", "inbound_nodes": [[["tf.nn.relu_9", 0, 0, {}]]]}, {"class_name": "Conv2D", "config": {"name": "conv2d_89", "trainable": true, "dtype": "float32", "filters": 256, "kernel_size": [3, 3], "strides": [1, 1], "padding": "same", "data_format": "channels_last", "dilation_rate": [1, 1], "groups": 1, "activation": "linear", "use_bias": true, "kernel_initializer": {"class_name": "GlorotUniform", "config": {"seed": null}}, "bias_initializer": {"class_name": "Zeros", "config": {}}, "kernel_regularizer": null, "bias_regularizer": null, "activity_regularizer": null, "kernel_constraint": null, "bias_constraint": null}, "name": "conv2d_89", "inbound_nodes": [[["re_lu_13", 0, 0, {}]]]}, {"class_name": "Conv2D", "config": {"name": "conv2d_31", "trainable": true, "dtype": "float32", "filters": 64, "kernel_size": [1, 1], "strides": [1, 1], "padding": "valid", "data_format": "channels_last", "dilation_rate": [1, 1], "groups": 1, "activation": "linear", "use_bias": true, "kernel_initializer": {"class_name": "GlorotUniform", "config": {"seed": null}}, "bias_initializer": {"class_name": "Zeros", "config": {}}, "kernel_regularizer": null, "bias_regularizer": null, "activity_regularizer": null, "kernel_constraint": null, "bias_constraint": null}, "name": "conv2d_31", "inbound_nodes": [[["up_sampling2d_1", 0, 0, {}]]]}, {"class_name": "Conv2D", "config": {"name": "conv2d_30", "trainable": true, "dtype": "float32", "filters": 64, "kernel_size": [1, 1], "strides": [1, 1], "padding": "valid", "data_format": "channels_last", "dilation_rate": [1, 1], "groups": 1, "activation": "linear", "use_bias": true, "kernel_initializer": {"class_name": "GlorotUniform", "config": {"seed": null}}, "bias_initializer": {"class_name": "Zeros", "config": {}}, "kernel_regularizer": null, "bias_regularizer": null, "activity_regularizer": null, "kernel_constraint": null, "bias_constraint": null}, "name": "conv2d_30", "inbound_nodes": [[["up_sampling2d", 0, 0, {}]]]}, {"class_name": "Conv2D", "config": {"name": "conv2d_39", "trainable": true, "dtype": "float32", "filters": 64, "kernel_size": [1, 1], "strides": [1, 1], "padding": "valid", "data_format": "channels_last", "dilation_rate": [1, 1], "groups": 1, "activation": "linear", "use_bias": true, "kernel_initializer": {"class_name": "GlorotUniform", "config": {"seed": null}}, "bias_initializer": {"class_name": "Zeros", "config": {}}, "kernel_regularizer": null, "bias_regularizer": null, "activity_regularizer": null, "kernel_constraint": null, "bias_constraint": null}, "name": "conv2d_39", "inbound_nodes": [[["up_sampling2d_5", 0, 0, {}]]]}, {"class_name": "Conv2D", "config": {"name": "conv2d_38", "trainable": true, "dtype": "float32", "filters": 64, "kernel_size": [1, 1], "strides": [1, 1], "padding": "valid", "data_format": "channels_last", "dilation_rate": [1, 1], "groups": 1, "activation": "linear", "use_bias": true, "kernel_initializer": {"class_name": "GlorotUniform", "config": {"seed": null}}, "bias_initializer": {"class_name": "Zeros", "config": {}}, "kernel_regularizer": null, "bias_regularizer": null, "activity_regularizer": null, "kernel_constraint": null, "bias_constraint": null}, "name": "conv2d_38", "inbound_nodes": [[["up_sampling2d_4", 0, 0, {}]]]}, {"class_name": "GlobalAveragePooling2D", "config": {"name": "global_average_pooling2d_8", "trainable": true, "dtype": "float32", "data_format": "channels_last"}, "name": "global_average_pooling2d_8", "inbound_nodes": [[["conv2d_89", 0, 0, {}]]]}, {"class_name": "Add", "config": {"name": "add_5", "trainable": true, "dtype": "float32"}, "name": "add_5", "inbound_nodes": [[["conv2d_31", 0, 0, {}], ["conv2d_30", 0, 0, {}]]]}, {"class_name": "Add", "config": {"name": "add_7", "trainable": true, "dtype": "float32"}, "name": "add_7", "inbound_nodes": [[["conv2d_39", 0, 0, {}], ["conv2d_38", 0, 0, {}]]]}, {"class_name": "TFOpLambda", "config": {"name": "tf.reshape_8", "trainable": true, "dtype": "float32", "function": "reshape"}, "name": "tf.reshape_8", "inbound_nodes": [[["global_average_pooling2d_8", 0, 0, {"shape": [-1, 1, 1, 256]}]]]}, {"class_name": "TFOpLambda", "config": {"name": "tf.math.reduce_max_5", "trainable": true, "dtype": "float32", "function": "math.reduce_max"}, "name": "tf.math.reduce_max_5", "inbound_nodes": [[["conv2d_89", 0, 0, {"axis": -1}]]]}, {"class_name": "TFOpLambda", "config": {"name": "tf.math.reduce_mean_5", "trainable": true, "dtype": "float32", "function": "math.reduce_mean"}, "name": "tf.math.reduce_mean_5", "inbound_nodes": [[["conv2d_89", 0, 0, {"axis": -1}]]]}, {"class_name": "Add", "config": {"name": "add_8", "trainable": true, "dtype": "float32"}, "name": "add_8", "inbound_nodes": [[["add_2", 0, 0, {}], ["add_5", 0, 0, {}], ["add_7", 0, 0, {}]]]}, {"class_name": "Conv2D", "config": {"name": "conv2d_90", "trainable": true, "dtype": "float32", "filters": 32, "kernel_size": [1, 1], "strides": [1, 1], "padding": "valid", "data_format": "channels_last", "dilation_rate": [1, 1], "groups": 1, "activation": "linear", "use_bias": true, "kernel_initializer": {"class_name": "GlorotUniform", "config": {"seed": null}}, "bias_initializer": {"class_name": "Zeros", "config": {}}, "kernel_regularizer": null, "bias_regularizer": null, "activity_regularizer": null, "kernel_constraint": null, "bias_constraint": null}, "name": "conv2d_90", "inbound_nodes": [[["tf.reshape_8", 0, 0, {}]]]}, {"class_name": "TFOpLambda", "config": {"name": "tf.expand_dims_10", "trainable": true, "dtype": "float32", "function": "expand_dims"}, "name": "tf.expand_dims_10", "inbound_nodes": [[["tf.math.reduce_max_5", 0, 0, {"axis": -1}]]]}, {"class_name": "TFOpLambda", "config": {"name": "tf.expand_dims_11", "trainable": true, "dtype": "float32", "function": "expand_dims"}, "name": "tf.expand_dims_11", "inbound_nodes": [[["tf.math.reduce_mean_5", 0, 0, {"axis": -1}]]]}, {"class_name": "GlobalAveragePooling2D", "config": {"name": "global_average_pooling2d_3", "trainable": true, "dtype": "float32", "data_format": "channels_last"}, "name": "global_average_pooling2d_3", "inbound_nodes": [[["add_8", 0, 0, {}]]]}, {"class_name": "ReLU", "config": {"name": "re_lu_14", "trainable": true, "dtype": "float32", "max_value": null, "negative_slope": 0.0, "threshold": 0.0}, "name": "re_lu_14", "inbound_nodes": [[["conv2d_90", 0, 0, {}]]]}, {"class_name": "Concatenate", "config": {"name": "concatenate_10", "trainable": true, "dtype": "float32", "axis": -1}, "name": "concatenate_10", "inbound_nodes": [[["tf.expand_dims_10", 0, 0, {}], ["tf.expand_dims_11", 0, 0, {}]]]}, {"class_name": "TFOpLambda", "config": {"name": "tf.reshape_3", "trainable": true, "dtype": "float32", "function": "reshape"}, "name": "tf.reshape_3", "inbound_nodes": [[["global_average_pooling2d_3", 0, 0, {"shape": [-1, 1, 1, 64]}]]]}, {"class_name": "Conv2D", "config": {"name": "conv2d_91", "trainable": true, "dtype": "float32", "filters": 256, "kernel_size": [1, 1], "strides": [1, 1], "padding": "valid", "data_format": "channels_last", "dilation_rate": [1, 1], "groups": 1, "activation": "linear", "use_bias": true, "kernel_initializer": {"class_name": "GlorotUniform", "config": {"seed": null}}, "bias_initializer": {"class_name": "Zeros", "config": {}}, "kernel_regularizer": null, "bias_regularizer": null, "activity_regularizer": null, "kernel_constraint": null, "bias_constraint": null}, "name": "conv2d_91", "inbound_nodes": [[["re_lu_14", 0, 0, {}]]]}, {"class_name": "Conv2D", "config": {"name": "conv2d_92", "trainable": true, "dtype": "float32", "filters": 1, "kernel_size": [1, 1], "strides": [1, 1], "padding": "valid", "data_format": "channels_last", "dilation_rate": [1, 1], "groups": 1, "activation": "linear", "use_bias": true, "kernel_initializer": {"class_name": "GlorotUniform", "config": {"seed": null}}, "bias_initializer": {"class_name": "Zeros", "config": {}}, "kernel_regularizer": null, "bias_regularizer": null, "activity_regularizer": null, "kernel_constraint": null, "bias_constraint": null}, "name": "conv2d_92", "inbound_nodes": [[["concatenate_10", 0, 0, {}]]]}, {"class_name": "Conv2D", "config": {"name": "conv2d_40", "trainable": true, "dtype": "float32", "filters": 8, "kernel_size": [1, 1], "strides": [1, 1], "padding": "valid", "data_format": "channels_last", "dilation_rate": [1, 1], "groups": 1, "activation": "linear", "use_bias": true, "kernel_initializer": {"class_name": "GlorotUniform", "config": {"seed": null}}, "bias_initializer": {"class_name": "Zeros", "config": {}}, "kernel_regularizer": null, "bias_regularizer": null, "activity_regularizer": null, "kernel_constraint": null, "bias_constraint": null}, "name": "conv2d_40", "inbound_nodes": [[["tf.reshape_3", 0, 0, {}]]]}, {"class_name": "TFOpLambda", "config": {"name": "tf.math.sigmoid_10", "trainable": true, "dtype": "float32", "function": "math.sigmoid"}, "name": "tf.math.sigmoid_10", "inbound_nodes": [[["conv2d_91", 0, 0, {}]]]}, {"class_name": "TFOpLambda", "config": {"name": "tf.math.sigmoid_11", "trainable": true, "dtype": "float32", "function": "math.sigmoid"}, "name": "tf.math.sigmoid_11", "inbound_nodes": [[["conv2d_92", 0, 0, {}]]]}, {"class_name": "ReLU", "config": {"name": "re_lu_6", "trainable": true, "dtype": "float32", "max_value": null, "negative_slope": 0.0, "threshold": 0.0}, "name": "re_lu_6", "inbound_nodes": [[["conv2d_40", 0, 0, {}]]]}, {"class_name": "TFOpLambda", "config": {"name": "tf.math.multiply_19", "trainable": true, "dtype": "float32", "function": "math.multiply"}, "name": "tf.math.multiply_19", "inbound_nodes": [[["conv2d_89", 0, 0, {"y": ["tf.math.sigmoid_10", 0, 0], "name": null}]]]}, {"class_name": "TFOpLambda", "config": {"name": "tf.math.multiply_20", "trainable": true, "dtype": "float32", "function": "math.multiply"}, "name": "tf.math.multiply_20", "inbound_nodes": [[["conv2d_89", 0, 0, {"y": ["tf.math.sigmoid_11", 0, 0], "name": null}]]]}, {"class_name": "Conv2D", "config": {"name": "conv2d_41", "trainable": true, "dtype": "float32", "filters": 64, "kernel_size": [1, 1], "strides": [1, 1], "padding": "valid", "data_format": "channels_last", "dilation_rate": [1, 1], "groups": 1, "activation": "linear", "use_bias": true, "kernel_initializer": {"class_name": "GlorotUniform", "config": {"seed": null}}, "bias_initializer": {"class_name": "Zeros", "config": {}}, "kernel_regularizer": null, "bias_regularizer": null, "activity_regularizer": null, "kernel_constraint": null, "bias_constraint": null}, "name": "conv2d_41", "inbound_nodes": [[["re_lu_6", 0, 0, {}]]]}, {"class_name": "Conv2D", "config": {"name": "conv2d_42", "trainable": true, "dtype": "float32", "filters": 64, "kernel_size": [1, 1], "strides": [1, 1], "padding": "valid", "data_format": "channels_last", "dilation_rate": [1, 1], "groups": 1, "activation": "linear", "use_bias": true, "kernel_initializer": {"class_name": "GlorotUniform", "config": {"seed": null}}, "bias_initializer": {"class_name": "Zeros", "config": {}}, "kernel_regularizer": null, "bias_regularizer": null, "activity_regularizer": null, "kernel_constraint": null, "bias_constraint": null}, "name": "conv2d_42", "inbound_nodes": [[["re_lu_6", 0, 0, {}]]]}, {"class_name": "Conv2D", "config": {"name": "conv2d_43", "trainable": true, "dtype": "float32", "filters": 64, "kernel_size": [1, 1], "strides": [1, 1], "padding": "valid", "data_format": "channels_last", "dilation_rate": [1, 1], "groups": 1, "activation": "linear", "use_bias": true, "kernel_initializer": {"class_name": "GlorotUniform", "config": {"seed": null}}, "bias_initializer": {"class_name": "Zeros", "config": {}}, "kernel_regularizer": null, "bias_regularizer": null, "activity_regularizer": null, "kernel_constraint": null, "bias_constraint": null}, "name": "conv2d_43", "inbound_nodes": [[["re_lu_6", 0, 0, {}]]]}, {"class_name": "Concatenate", "config": {"name": "concatenate_11", "trainable": true, "dtype": "float32", "axis": -1}, "name": "concatenate_11", "inbound_nodes": [[["tf.math.multiply_19", 0, 0, {}], ["tf.math.multiply_20", 0, 0, {}]]]}, {"class_name": "TFOpLambda", "config": {"name": "tf.nn.softmax", "trainable": true, "dtype": "float32", "function": "nn.softmax"}, "name": "tf.nn.softmax", "inbound_nodes": [[["conv2d_41", 0, 0, {}]]]}, {"class_name": "TFOpLambda", "config": {"name": "tf.nn.softmax_1", "trainable": true, "dtype": "float32", "function": "nn.softmax"}, "name": "tf.nn.softmax_1", "inbound_nodes": [[["conv2d_42", 0, 0, {}]]]}, {"class_name": "TFOpLambda", "config": {"name": "tf.nn.softmax_2", "trainable": true, "dtype": "float32", "function": "nn.softmax"}, "name": "tf.nn.softmax_2", "inbound_nodes": [[["conv2d_43", 0, 0, {}]]]}, {"class_name": "Conv2D", "config": {"name": "conv2d_93", "trainable": true, "dtype": "float32", "filters": 256, "kernel_size": [1, 1], "strides": [1, 1], "padding": "valid", "data_format": "channels_last", "dilation_rate": [1, 1], "groups": 1, "activation": "linear", "use_bias": true, "kernel_initializer": {"class_name": "GlorotUniform", "config": {"seed": null}}, "bias_initializer": {"class_name": "Zeros", "config": {}}, "kernel_regularizer": null, "bias_regularizer": null, "activity_regularizer": null, "kernel_constraint": null, "bias_constraint": null}, "name": "conv2d_93", "inbound_nodes": [[["concatenate_11", 0, 0, {}]]]}, {"class_name": "TFOpLambda", "config": {"name": "tf.math.multiply_6", "trainable": true, "dtype": "float32", "function": "math.multiply"}, "name": "tf.math.multiply_6", "inbound_nodes": [[["add_2", 0, 0, {"y": ["tf.nn.softmax", 0, 0], "name": null}]]]}, {"class_name": "TFOpLambda", "config": {"name": "tf.math.multiply_7", "trainable": true, "dtype": "float32", "function": "math.multiply"}, "name": "tf.math.multiply_7", "inbound_nodes": [[["add_5", 0, 0, {"y": ["tf.nn.softmax_1", 0, 0], "name": null}]]]}, {"class_name": "TFOpLambda", "config": {"name": "tf.math.multiply_8", "trainable": true, "dtype": "float32", "function": "math.multiply"}, "name": "tf.math.multiply_8", "inbound_nodes": [[["add_7", 0, 0, {"y": ["tf.nn.softmax_2", 0, 0], "name": null}]]]}, {"class_name": "Add", "config": {"name": "add_22", "trainable": true, "dtype": "float32"}, "name": "add_22", "inbound_nodes": [[["add_18", 0, 0, {}], ["conv2d_93", 0, 0, {}]]]}, {"class_name": "Add", "config": {"name": "add_9", "trainable": true, "dtype": "float32"}, "name": "add_9", "inbound_nodes": [[["tf.math.multiply_6", 0, 0, {}], ["tf.math.multiply_7", 0, 0, {}], ["tf.math.multiply_8", 0, 0, {}]]]}, {"class_name": "Conv2D", "config": {"name": "conv2d_94", "trainable": true, "dtype": "float32", "filters": 256, "kernel_size": [1, 1], "strides": [1, 1], "padding": "valid", "data_format": "channels_last", "dilation_rate": [1, 1], "groups": 1, "activation": "linear", "use_bias": true, "kernel_initializer": {"class_name": "GlorotUniform", "config": {"seed": null}}, "bias_initializer": {"class_name": "Zeros", "config": {}}, "kernel_regularizer": null, "bias_regularizer": null, "activity_regularizer": null, "kernel_constraint": null, "bias_constraint": null}, "name": "conv2d_94", "inbound_nodes": [[["add_22", 0, 0, {}]]]}, {"class_name": "Conv2D", "config": {"name": "conv2d_72", "trainable": true, "dtype": "float32", "filters": 64, "kernel_size": [3, 3], "strides": [1, 1], "padding": "same", "data_format": "channels_last", "dilation_rate": [1, 1], "groups": 1, "activation": "linear", "use_bias": true, "kernel_initializer": {"class_name": "GlorotUniform", "config": {"seed": null}}, "bias_initializer": {"class_name": "Zeros", "config": {}}, "kernel_regularizer": null, "bias_regularizer": null, "activity_regularizer": null, "kernel_constraint": null, "bias_constraint": null}, "name": "conv2d_72", "inbound_nodes": [[["add_9", 0, 0, {}]]]}, {"class_name": "TFOpLambda", "config": {"name": "tf.nn.relu_22", "trainable": true, "dtype": "float32", "function": "nn.relu"}, "name": "tf.nn.relu_22", "inbound_nodes": [[["conv2d_94", 0, 0, {"name": null}]]]}, {"class_name": "ReLU", "config": {"name": "re_lu_9", "trainable": true, "dtype": "float32", "max_value": null, "negative_slope": 0.0, "threshold": 0.0}, "name": "re_lu_9", "inbound_nodes": [[["conv2d_72", 0, 0, {}]]]}, {"class_name": "Conv2D", "config": {"name": "conv2d_95", "trainable": true, "dtype": "float32", "filters": 256, "kernel_size": [3, 3], "strides": [1, 1], "padding": "same", "data_format": "channels_last", "dilation_rate": [1, 1], "groups": 1, "activation": "linear", "use_bias": true, "kernel_initializer": {"class_name": "GlorotUniform", "config": {"seed": null}}, "bias_initializer": {"class_name": "Zeros", "config": {}}, "kernel_regularizer": null, "bias_regularizer": null, "activity_regularizer": null, "kernel_constraint": null, "bias_constraint": null}, "name": "conv2d_95", "inbound_nodes": [[["tf.nn.relu_22", 0, 0, {}]]]}, {"class_name": "Conv2D", "config": {"name": "conv2d_73", "trainable": true, "dtype": "float32", "filters": 64, "kernel_size": [3, 3], "strides": [1, 1], "padding": "same", "data_format": "channels_last", "dilation_rate": [1, 1], "groups": 1, "activation": "linear", "use_bias": true, "kernel_initializer": {"class_name": "GlorotUniform", "config": {"seed": null}}, "bias_initializer": {"class_name": "Zeros", "config": {}}, "kernel_regularizer": null, "bias_regularizer": null, "activity_regularizer": null, "kernel_constraint": null, "bias_constraint": null}, "name": "conv2d_73", "inbound_nodes": [[["re_lu_9", 0, 0, {}]]]}, {"class_name": "TFOpLambda", "config": {"name": "tf.nn.relu_23", "trainable": true, "dtype": "float32", "function": "nn.relu"}, "name": "tf.nn.relu_23", "inbound_nodes": [[["conv2d_95", 0, 0, {"name": null}]]]}, {"class_name": "GlobalAveragePooling2D", "config": {"name": "global_average_pooling2d_6", "trainable": true, "dtype": "float32", "data_format": "channels_last"}, "name": "global_average_pooling2d_6", "inbound_nodes": [[["conv2d_73", 0, 0, {}]]]}, {"class_name": "UpSampling2D", "config": {"name": "up_sampling2d_11", "trainable": true, "dtype": "float32", "size": [2, 2], "data_format": "channels_last", "interpolation": "nearest"}, "name": "up_sampling2d_11", "inbound_nodes": [[["add_22", 0, 0, {}]]]}, {"class_name": "UpSampling2D", "config": {"name": "up_sampling2d_10", "trainable": true, "dtype": "float32", "size": [2, 2], "data_format": "channels_last", "interpolation": "nearest"}, "name": "up_sampling2d_10", "inbound_nodes": [[["tf.nn.relu_23", 0, 0, {}]]]}, {"class_name": "TFOpLambda", "config": {"name": "tf.reshape_6", "trainable": true, "dtype": "float32", "function": "reshape"}, "name": "tf.reshape_6", "inbound_nodes": [[["global_average_pooling2d_6", 0, 0, {"shape": [-1, 1, 1, 64]}]]]}, {"class_name": "TFOpLambda", "config": {"name": "tf.math.reduce_max_3", "trainable": true, "dtype": "float32", "function": "math.reduce_max"}, "name": "tf.math.reduce_max_3", "inbound_nodes": [[["conv2d_73", 0, 0, {"axis": -1}]]]}, {"class_name": "TFOpLambda", "config": {"name": "tf.math.reduce_mean_3", "trainable": true, "dtype": "float32", "function": "math.reduce_mean"}, "name": "tf.math.reduce_mean_3", "inbound_nodes": [[["conv2d_73", 0, 0, {"axis": -1}]]]}, {"class_name": "Conv2D", "config": {"name": "conv2d_97", "trainable": true, "dtype": "float32", "filters": 128, "kernel_size": [1, 1], "strides": [1, 1], "padding": "valid", "data_format": "channels_last", "dilation_rate": [1, 1], "groups": 1, "activation": "linear", "use_bias": true, "kernel_initializer": {"class_name": "GlorotUniform", "config": {"seed": null}}, "bias_initializer": {"class_name": "Zeros", "config": {}}, "kernel_regularizer": null, "bias_regularizer": null, "activity_regularizer": null, "kernel_constraint": null, "bias_constraint": null}, "name": "conv2d_97", "inbound_nodes": [[["up_sampling2d_11", 0, 0, {}]]]}, {"class_name": "Conv2D", "config": {"name": "conv2d_96", "trainable": true, "dtype": "float32", "filters": 128, "kernel_size": [1, 1], "strides": [1, 1], "padding": "valid", "data_format": "channels_last", "dilation_rate": [1, 1], "groups": 1, "activation": "linear", "use_bias": true, "kernel_initializer": {"class_name": "GlorotUniform", "config": {"seed": null}}, "bias_initializer": {"class_name": "Zeros", "config": {}}, "kernel_regularizer": null, "bias_regularizer": null, "activity_regularizer": null, "kernel_constraint": null, "bias_constraint": null}, "name": "conv2d_96", "inbound_nodes": [[["up_sampling2d_10", 0, 0, {}]]]}, {"class_name": "Conv2D", "config": {"name": "conv2d_74", "trainable": true, "dtype": "float32", "filters": 8, "kernel_size": [1, 1], "strides": [1, 1], "padding": "valid", "data_format": "channels_last", "dilation_rate": [1, 1], "groups": 1, "activation": "linear", "use_bias": true, "kernel_initializer": {"class_name": "GlorotUniform", "config": {"seed": null}}, "bias_initializer": {"class_name": "Zeros", "config": {}}, "kernel_regularizer": null, "bias_regularizer": null, "activity_regularizer": null, "kernel_constraint": null, "bias_constraint": null}, "name": "conv2d_74", "inbound_nodes": [[["tf.reshape_6", 0, 0, {}]]]}, {"class_name": "TFOpLambda", "config": {"name": "tf.expand_dims_6", "trainable": true, "dtype": "float32", "function": "expand_dims"}, "name": "tf.expand_dims_6", "inbound_nodes": [[["tf.math.reduce_max_3", 0, 0, {"axis": -1}]]]}, {"class_name": "TFOpLambda", "config": {"name": "tf.expand_dims_7", "trainable": true, "dtype": "float32", "function": "expand_dims"}, "name": "tf.expand_dims_7", "inbound_nodes": [[["tf.math.reduce_mean_3", 0, 0, {"axis": -1}]]]}, {"class_name": "Add", "config": {"name": "add_23", "trainable": true, "dtype": "float32"}, "name": "add_23", "inbound_nodes": [[["conv2d_97", 0, 0, {}], ["conv2d_96", 0, 0, {}]]]}, {"class_name": "ReLU", "config": {"name": "re_lu_10", "trainable": true, "dtype": "float32", "max_value": null, "negative_slope": 0.0, "threshold": 0.0}, "name": "re_lu_10", "inbound_nodes": [[["conv2d_74", 0, 0, {}]]]}, {"class_name": "Concatenate", "config": {"name": "concatenate_6", "trainable": true, "dtype": "float32", "axis": -1}, "name": "concatenate_6", "inbound_nodes": [[["tf.expand_dims_6", 0, 0, {}], ["tf.expand_dims_7", 0, 0, {}]]]}, {"class_name": "Conv2D", "config": {"name": "conv2d_98", "trainable": true, "dtype": "float32", "filters": 128, "kernel_size": [1, 1], "strides": [1, 1], "padding": "valid", "data_format": "channels_last", "dilation_rate": [1, 1], "groups": 1, "activation": "linear", "use_bias": true, "kernel_initializer": {"class_name": "GlorotUniform", "config": {"seed": null}}, "bias_initializer": {"class_name": "Zeros", "config": {}}, "kernel_regularizer": null, "bias_regularizer": null, "activity_regularizer": null, "kernel_constraint": null, "bias_constraint": null}, "name": "conv2d_98", "inbound_nodes": [[["add_23", 0, 0, {}]]]}, {"class_name": "Conv2D", "config": {"name": "conv2d_75", "trainable": true, "dtype": "float32", "filters": 64, "kernel_size": [1, 1], "strides": [1, 1], "padding": "valid", "data_format": "channels_last", "dilation_rate": [1, 1], "groups": 1, "activation": "linear", "use_bias": true, "kernel_initializer": {"class_name": "GlorotUniform", "config": {"seed": null}}, "bias_initializer": {"class_name": "Zeros", "config": {}}, "kernel_regularizer": null, "bias_regularizer": null, "activity_regularizer": null, "kernel_constraint": null, "bias_constraint": null}, "name": "conv2d_75", "inbound_nodes": [[["re_lu_10", 0, 0, {}]]]}, {"class_name": "Conv2D", "config": {"name": "conv2d_76", "trainable": true, "dtype": "float32", "filters": 1, "kernel_size": [1, 1], "strides": [1, 1], "padding": "valid", "data_format": "channels_last", "dilation_rate": [1, 1], "groups": 1, "activation": "linear", "use_bias": true, "kernel_initializer": {"class_name": "GlorotUniform", "config": {"seed": null}}, "bias_initializer": {"class_name": "Zeros", "config": {}}, "kernel_regularizer": null, "bias_regularizer": null, "activity_regularizer": null, "kernel_constraint": null, "bias_constraint": null}, "name": "conv2d_76", "inbound_nodes": [[["concatenate_6", 0, 0, {}]]]}, {"class_name": "TFOpLambda", "config": {"name": "tf.nn.relu_24", "trainable": true, "dtype": "float32", "function": "nn.relu"}, "name": "tf.nn.relu_24", "inbound_nodes": [[["conv2d_98", 0, 0, {"name": null}]]]}, {"class_name": "TFOpLambda", "config": {"name": "tf.math.sigmoid_6", "trainable": true, "dtype": "float32", "function": "math.sigmoid"}, "name": "tf.math.sigmoid_6", "inbound_nodes": [[["conv2d_75", 0, 0, {}]]]}, {"class_name": "TFOpLambda", "config": {"name": "tf.math.sigmoid_7", "trainable": true, "dtype": "float32", "function": "math.sigmoid"}, "name": "tf.math.sigmoid_7", "inbound_nodes": [[["conv2d_76", 0, 0, {}]]]}, {"class_name": "Conv2D", "config": {"name": "conv2d_99", "trainable": true, "dtype": "float32", "filters": 128, "kernel_size": [3, 3], "strides": [1, 1], "padding": "same", "data_format": "channels_last", "dilation_rate": [1, 1], "groups": 1, "activation": "linear", "use_bias": true, "kernel_initializer": {"class_name": "GlorotUniform", "config": {"seed": null}}, "bias_initializer": {"class_name": "Zeros", "config": {}}, "kernel_regularizer": null, "bias_regularizer": null, "activity_regularizer": null, "kernel_constraint": null, "bias_constraint": null}, "name": "conv2d_99", "inbound_nodes": [[["tf.nn.relu_24", 0, 0, {}]]]}, {"class_name": "TFOpLambda", "config": {"name": "tf.math.multiply_15", "trainable": true, "dtype": "float32", "function": "math.multiply"}, "name": "tf.math.multiply_15", "inbound_nodes": [[["conv2d_73", 0, 0, {"y": ["tf.math.sigmoid_6", 0, 0], "name": null}]]]}, {"class_name": "TFOpLambda", "config": {"name": "tf.math.multiply_16", "trainable": true, "dtype": "float32", "function": "math.multiply"}, "name": "tf.math.multiply_16", "inbound_nodes": [[["conv2d_73", 0, 0, {"y": ["tf.math.sigmoid_7", 0, 0], "name": null}]]]}, {"class_name": "TFOpLambda", "config": {"name": "tf.nn.relu_25", "trainable": true, "dtype": "float32", "function": "nn.relu"}, "name": "tf.nn.relu_25", "inbound_nodes": [[["conv2d_99", 0, 0, {"name": null}]]]}, {"class_name": "Concatenate", "config": {"name": "concatenate_7", "trainable": true, "dtype": "float32", "axis": -1}, "name": "concatenate_7", "inbound_nodes": [[["tf.math.multiply_15", 0, 0, {}], ["tf.math.multiply_16", 0, 0, {}]]]}, {"class_name": "UpSampling2D", "config": {"name": "up_sampling2d_13", "trainable": true, "dtype": "float32", "size": [2, 2], "data_format": "channels_last", "interpolation": "nearest"}, "name": "up_sampling2d_13", "inbound_nodes": [[["add_23", 0, 0, {}]]]}, {"class_name": "UpSampling2D", "config": {"name": "up_sampling2d_12", "trainable": true, "dtype": "float32", "size": [2, 2], "data_format": "channels_last", "interpolation": "nearest"}, "name": "up_sampling2d_12", "inbound_nodes": [[["tf.nn.relu_25", 0, 0, {}]]]}, {"class_name": "Conv2D", "config": {"name": "conv2d_77", "trainable": true, "dtype": "float32", "filters": 64, "kernel_size": [1, 1], "strides": [1, 1], "padding": "valid", "data_format": "channels_last", "dilation_rate": [1, 1], "groups": 1, "activation": "linear", "use_bias": true, "kernel_initializer": {"class_name": "GlorotUniform", "config": {"seed": null}}, "bias_initializer": {"class_name": "Zeros", "config": {}}, "kernel_regularizer": null, "bias_regularizer": null, "activity_regularizer": null, "kernel_constraint": null, "bias_constraint": null}, "name": "conv2d_77", "inbound_nodes": [[["concatenate_7", 0, 0, {}]]]}, {"class_name": "Conv2D", "config": {"name": "conv2d_101", "trainable": true, "dtype": "float32", "filters": 64, "kernel_size": [1, 1], "strides": [1, 1], "padding": "valid", "data_format": "channels_last", "dilation_rate": [1, 1], "groups": 1, "activation": "linear", "use_bias": true, "kernel_initializer": {"class_name": "GlorotUniform", "config": {"seed": null}}, "bias_initializer": {"class_name": "Zeros", "config": {}}, "kernel_regularizer": null, "bias_regularizer": null, "activity_regularizer": null, "kernel_constraint": null, "bias_constraint": null}, "name": "conv2d_101", "inbound_nodes": [[["up_sampling2d_13", 0, 0, {}]]]}, {"class_name": "Conv2D", "config": {"name": "conv2d_100", "trainable": true, "dtype": "float32", "filters": 64, "kernel_size": [1, 1], "strides": [1, 1], "padding": "valid", "data_format": "channels_last", "dilation_rate": [1, 1], "groups": 1, "activation": "linear", "use_bias": true, "kernel_initializer": {"class_name": "GlorotUniform", "config": {"seed": null}}, "bias_initializer": {"class_name": "Zeros", "config": {}}, "kernel_regularizer": null, "bias_regularizer": null, "activity_regularizer": null, "kernel_constraint": null, "bias_constraint": null}, "name": "conv2d_100", "inbound_nodes": [[["up_sampling2d_12", 0, 0, {}]]]}, {"class_name": "Add", "config": {"name": "add_19", "trainable": true, "dtype": "float32"}, "name": "add_19", "inbound_nodes": [[["add_9", 0, 0, {}], ["conv2d_77", 0, 0, {}]]]}, {"class_name": "Add", "config": {"name": "add_24", "trainable": true, "dtype": "float32"}, "name": "add_24", "inbound_nodes": [[["conv2d_101", 0, 0, {}], ["conv2d_100", 0, 0, {}]]]}, {"class_name": "Add", "config": {"name": "add_25", "trainable": true, "dtype": "float32"}, "name": "add_25", "inbound_nodes": [[["add_19", 0, 0, {}], ["add_24", 0, 0, {}], ["add_24", 0, 0, {}]]]}, {"class_name": "GlobalAveragePooling2D", "config": {"name": "global_average_pooling2d_9", "trainable": true, "dtype": "float32", "data_format": "channels_last"}, "name": "global_average_pooling2d_9", "inbound_nodes": [[["add_25", 0, 0, {}]]]}, {"class_name": "TFOpLambda", "config": {"name": "tf.reshape_9", "trainable": true, "dtype": "float32", "function": "reshape"}, "name": "tf.reshape_9", "inbound_nodes": [[["global_average_pooling2d_9", 0, 0, {"shape": [-1, 1, 1, 64]}]]]}, {"class_name": "Conv2D", "config": {"name": "conv2d_102", "trainable": true, "dtype": "float32", "filters": 8, "kernel_size": [1, 1], "strides": [1, 1], "padding": "valid", "data_format": "channels_last", "dilation_rate": [1, 1], "groups": 1, "activation": "linear", "use_bias": true, "kernel_initializer": {"class_name": "GlorotUniform", "config": {"seed": null}}, "bias_initializer": {"class_name": "Zeros", "config": {}}, "kernel_regularizer": null, "bias_regularizer": null, "activity_regularizer": null, "kernel_constraint": null, "bias_constraint": null}, "name": "conv2d_102", "inbound_nodes": [[["tf.reshape_9", 0, 0, {}]]]}, {"class_name": "ReLU", "config": {"name": "re_lu_15", "trainable": true, "dtype": "float32", "max_value": null, "negative_slope": 0.0, "threshold": 0.0}, "name": "re_lu_15", "inbound_nodes": [[["conv2d_102", 0, 0, {}]]]}, {"class_name": "Conv2D", "config": {"name": "conv2d_103", "trainable": true, "dtype": "float32", "filters": 64, "kernel_size": [1, 1], "strides": [1, 1], "padding": "valid", "data_format": "channels_last", "dilation_rate": [1, 1], "groups": 1, "activation": "linear", "use_bias": true, "kernel_initializer": {"class_name": "GlorotUniform", "config": {"seed": null}}, "bias_initializer": {"class_name": "Zeros", "config": {}}, "kernel_regularizer": null, "bias_regularizer": null, "activity_regularizer": null, "kernel_constraint": null, "bias_constraint": null}, "name": "conv2d_103", "inbound_nodes": [[["re_lu_15", 0, 0, {}]]]}, {"class_name": "Conv2D", "config": {"name": "conv2d_104", "trainable": true, "dtype": "float32", "filters": 64, "kernel_size": [1, 1], "strides": [1, 1], "padding": "valid", "data_format": "channels_last", "dilation_rate": [1, 1], "groups": 1, "activation": "linear", "use_bias": true, "kernel_initializer": {"class_name": "GlorotUniform", "config": {"seed": null}}, "bias_initializer": {"class_name": "Zeros", "config": {}}, "kernel_regularizer": null, "bias_regularizer": null, "activity_regularizer": null, "kernel_constraint": null, "bias_constraint": null}, "name": "conv2d_104", "inbound_nodes": [[["re_lu_15", 0, 0, {}]]]}, {"class_name": "Conv2D", "config": {"name": "conv2d_105", "trainable": true, "dtype": "float32", "filters": 64, "kernel_size": [1, 1], "strides": [1, 1], "padding": "valid", "data_format": "channels_last", "dilation_rate": [1, 1], "groups": 1, "activation": "linear", "use_bias": true, "kernel_initializer": {"class_name": "GlorotUniform", "config": {"seed": null}}, "bias_initializer": {"class_name": "Zeros", "config": {}}, "kernel_regularizer": null, "bias_regularizer": null, "activity_regularizer": null, "kernel_constraint": null, "bias_constraint": null}, "name": "conv2d_105", "inbound_nodes": [[["re_lu_15", 0, 0, {}]]]}, {"class_name": "TFOpLambda", "config": {"name": "tf.nn.softmax_9", "trainable": true, "dtype": "float32", "function": "nn.softmax"}, "name": "tf.nn.softmax_9", "inbound_nodes": [[["conv2d_103", 0, 0, {}]]]}, {"class_name": "TFOpLambda", "config": {"name": "tf.nn.softmax_10", "trainable": true, "dtype": "float32", "function": "nn.softmax"}, "name": "tf.nn.softmax_10", "inbound_nodes": [[["conv2d_104", 0, 0, {}]]]}, {"class_name": "TFOpLambda", "config": {"name": "tf.nn.softmax_11", "trainable": true, "dtype": "float32", "function": "nn.softmax"}, "name": "tf.nn.softmax_11", "inbound_nodes": [[["conv2d_105", 0, 0, {}]]]}, {"class_name": "TFOpLambda", "config": {"name": "tf.math.multiply_21", "trainable": true, "dtype": "float32", "function": "math.multiply"}, "name": "tf.math.multiply_21", "inbound_nodes": [[["add_19", 0, 0, {"y": ["tf.nn.softmax_9", 0, 0], "name": null}]]]}, {"class_name": "TFOpLambda", "config": {"name": "tf.math.multiply_22", "trainable": true, "dtype": "float32", "function": "math.multiply"}, "name": "tf.math.multiply_22", "inbound_nodes": [[["add_24", 0, 0, {"y": ["tf.nn.softmax_10", 0, 0], "name": null}]]]}, {"class_name": "TFOpLambda", "config": {"name": "tf.math.multiply_23", "trainable": true, "dtype": "float32", "function": "math.multiply"}, "name": "tf.math.multiply_23", "inbound_nodes": [[["add_24", 0, 0, {"y": ["tf.nn.softmax_11", 0, 0], "name": null}]]]}, {"class_name": "Add", "config": {"name": "add_26", "trainable": true, "dtype": "float32"}, "name": "add_26", "inbound_nodes": [[["tf.math.multiply_21", 0, 0, {}], ["tf.math.multiply_22", 0, 0, {}], ["tf.math.multiply_23", 0, 0, {}]]]}, {"class_name": "Conv2D", "config": {"name": "conv2d_106", "trainable": true, "dtype": "float32", "filters": 64, "kernel_size": [3, 3], "strides": [1, 1], "padding": "same", "data_format": "channels_last", "dilation_rate": [1, 1], "groups": 1, "activation": "linear", "use_bias": true, "kernel_initializer": {"class_name": "GlorotUniform", "config": {"seed": null}}, "bias_initializer": {"class_name": "Zeros", "config": {}}, "kernel_regularizer": null, "bias_regularizer": null, "activity_regularizer": null, "kernel_constraint": null, "bias_constraint": null}, "name": "conv2d_106", "inbound_nodes": [[["add_26", 0, 0, {}]]]}, {"class_name": "Add", "config": {"name": "add_27", "trainable": true, "dtype": "float32"}, "name": "add_27", "inbound_nodes": [[["conv2d_1", 0, 0, {}], ["conv2d_106", 0, 0, {}]]]}, {"class_name": "Conv2D", "config": {"name": "conv2d_115", "trainable": true, "dtype": "float32", "filters": 64, "kernel_size": [3, 3], "strides": [1, 1], "padding": "same", "data_format": "channels_last", "dilation_rate": [1, 1], "groups": 1, "activation": "linear", "use_bias": true, "kernel_initializer": {"class_name": "GlorotUniform", "config": {"seed": null}}, "bias_initializer": {"class_name": "Zeros", "config": {}}, "kernel_regularizer": null, "bias_regularizer": null, "activity_regularizer": null, "kernel_constraint": null, "bias_constraint": null}, "name": "conv2d_115", "inbound_nodes": [[["add_27", 0, 0, {}]]]}, {"class_name": "Conv2D", "config": {"name": "conv2d_107", "trainable": true, "dtype": "float32", "filters": 64, "kernel_size": [1, 1], "strides": [1, 1], "padding": "valid", "data_format": "channels_last", "dilation_rate": [1, 1], "groups": 1, "activation": "linear", "use_bias": true, "kernel_initializer": {"class_name": "GlorotUniform", "config": {"seed": null}}, "bias_initializer": {"class_name": "Zeros", "config": {}}, "kernel_regularizer": null, "bias_regularizer": null, "activity_regularizer": null, "kernel_constraint": null, "bias_constraint": null}, "name": "conv2d_107", "inbound_nodes": [[["add_27", 0, 0, {}]]]}, {"class_name": "ReLU", "config": {"name": "re_lu_16", "trainable": true, "dtype": "float32", "max_value": null, "negative_slope": 0.0, "threshold": 0.0}, "name": "re_lu_16", "inbound_nodes": [[["conv2d_115", 0, 0, {}]]]}, {"class_name": "TFOpLambda", "config": {"name": "tf.nn.relu_26", "trainable": true, "dtype": "float32", "function": "nn.relu"}, "name": "tf.nn.relu_26", "inbound_nodes": [[["conv2d_107", 0, 0, {"name": null}]]]}, {"class_name": "Conv2D", "config": {"name": "conv2d_116", "trainable": true, "dtype": "float32", "filters": 64, "kernel_size": [3, 3], "strides": [1, 1], "padding": "same", "data_format": "channels_last", "dilation_rate": [1, 1], "groups": 1, "activation": "linear", "use_bias": true, "kernel_initializer": {"class_name": "GlorotUniform", "config": {"seed": null}}, "bias_initializer": {"class_name": "Zeros", "config": {}}, "kernel_regularizer": null, "bias_regularizer": null, "activity_regularizer": null, "kernel_constraint": null, "bias_constraint": null}, "name": "conv2d_116", "inbound_nodes": [[["re_lu_16", 0, 0, {}]]]}, {"class_name": "Conv2D", "config": {"name": "conv2d_108", "trainable": true, "dtype": "float32", "filters": 64, "kernel_size": [3, 3], "strides": [1, 1], "padding": "same", "data_format": "channels_last", "dilation_rate": [1, 1], "groups": 1, "activation": "linear", "use_bias": true, "kernel_initializer": {"class_name": "GlorotUniform", "config": {"seed": null}}, "bias_initializer": {"class_name": "Zeros", "config": {}}, "kernel_regularizer": null, "bias_regularizer": null, "activity_regularizer": null, "kernel_constraint": null, "bias_constraint": null}, "name": "conv2d_108", "inbound_nodes": [[["tf.nn.relu_26", 0, 0, {}]]]}, {"class_name": "GlobalAveragePooling2D", "config": {"name": "global_average_pooling2d_10", "trainable": true, "dtype": "float32", "data_format": "channels_last"}, "name": "global_average_pooling2d_10", "inbound_nodes": [[["conv2d_116", 0, 0, {}]]]}, {"class_name": "TFOpLambda", "config": {"name": "tf.nn.relu_27", "trainable": true, "dtype": "float32", "function": "nn.relu"}, "name": "tf.nn.relu_27", "inbound_nodes": [[["conv2d_108", 0, 0, {"name": null}]]]}, {"class_name": "TFOpLambda", "config": {"name": "tf.reshape_10", "trainable": true, "dtype": "float32", "function": "reshape"}, "name": "tf.reshape_10", "inbound_nodes": [[["global_average_pooling2d_10", 0, 0, {"shape": [-1, 1, 1, 64]}]]]}, {"class_name": "TFOpLambda", "config": {"name": "tf.math.reduce_max_6", "trainable": true, "dtype": "float32", "function": "math.reduce_max"}, "name": "tf.math.reduce_max_6", "inbound_nodes": [[["conv2d_116", 0, 0, {"axis": -1}]]]}, {"class_name": "TFOpLambda", "config": {"name": "tf.math.reduce_mean_6", "trainable": true, "dtype": "float32", "function": "math.reduce_mean"}, "name": "tf.math.reduce_mean_6", "inbound_nodes": [[["conv2d_116", 0, 0, {"axis": -1}]]]}, {"class_name": "MaxPooling2D", "config": {"name": "max_pooling2d_13", "trainable": true, "dtype": "float32", "pool_size": [2, 2], "padding": "valid", "strides": [2, 2], "data_format": "channels_last"}, "name": "max_pooling2d_13", "inbound_nodes": [[["add_27", 0, 0, {}]]]}, {"class_name": "MaxPooling2D", "config": {"name": "max_pooling2d_12", "trainable": true, "dtype": "float32", "pool_size": [2, 2], "padding": "valid", "strides": [2, 2], "data_format": "channels_last"}, "name": "max_pooling2d_12", "inbound_nodes": [[["tf.nn.relu_27", 0, 0, {}]]]}, {"class_name": "Conv2D", "config": {"name": "conv2d_117", "trainable": true, "dtype": "float32", "filters": 8, "kernel_size": [1, 1], "strides": [1, 1], "padding": "valid", "data_format": "channels_last", "dilation_rate": [1, 1], "groups": 1, "activation": "linear", "use_bias": true, "kernel_initializer": {"class_name": "GlorotUniform", "config": {"seed": null}}, "bias_initializer": {"class_name": "Zeros", "config": {}}, "kernel_regularizer": null, "bias_regularizer": null, "activity_regularizer": null, "kernel_constraint": null, "bias_constraint": null}, "name": "conv2d_117", "inbound_nodes": [[["tf.reshape_10", 0, 0, {}]]]}, {"class_name": "TFOpLambda", "config": {"name": "tf.expand_dims_12", "trainable": true, "dtype": "float32", "function": "expand_dims"}, "name": "tf.expand_dims_12", "inbound_nodes": [[["tf.math.reduce_max_6", 0, 0, {"axis": -1}]]]}, {"class_name": "TFOpLambda", "config": {"name": "tf.expand_dims_13", "trainable": true, "dtype": "float32", "function": "expand_dims"}, "name": "tf.expand_dims_13", "inbound_nodes": [[["tf.math.reduce_mean_6", 0, 0, {"axis": -1}]]]}, {"class_name": "Conv2D", "config": {"name": "conv2d_110", "trainable": true, "dtype": "float32", "filters": 128, "kernel_size": [1, 1], "strides": [1, 1], "padding": "valid", "data_format": "channels_last", "dilation_rate": [1, 1], "groups": 1, "activation": "linear", "use_bias": true, "kernel_initializer": {"class_name": "GlorotUniform", "config": {"seed": null}}, "bias_initializer": {"class_name": "Zeros", "config": {}}, "kernel_regularizer": null, "bias_regularizer": null, "activity_regularizer": null, "kernel_constraint": null, "bias_constraint": null}, "name": "conv2d_110", "inbound_nodes": [[["max_pooling2d_13", 0, 0, {}]]]}, {"class_name": "Conv2D", "config": {"name": "conv2d_109", "trainable": true, "dtype": "float32", "filters": 128, "kernel_size": [1, 1], "strides": [1, 1], "padding": "valid", "data_format": "channels_last", "dilation_rate": [1, 1], "groups": 1, "activation": "linear", "use_bias": true, "kernel_initializer": {"class_name": "GlorotUniform", "config": {"seed": null}}, "bias_initializer": {"class_name": "Zeros", "config": {}}, "kernel_regularizer": null, "bias_regularizer": null, "activity_regularizer": null, "kernel_constraint": null, "bias_constraint": null}, "name": "conv2d_109", "inbound_nodes": [[["max_pooling2d_12", 0, 0, {}]]]}, {"class_name": "ReLU", "config": {"name": "re_lu_17", "trainable": true, "dtype": "float32", "max_value": null, "negative_slope": 0.0, "threshold": 0.0}, "name": "re_lu_17", "inbound_nodes": [[["conv2d_117", 0, 0, {}]]]}, {"class_name": "Concatenate", "config": {"name": "concatenate_12", "trainable": true, "dtype": "float32", "axis": -1}, "name": "concatenate_12", "inbound_nodes": [[["tf.expand_dims_12", 0, 0, {}], ["tf.expand_dims_13", 0, 0, {}]]]}, {"class_name": "Add", "config": {"name": "add_28", "trainable": true, "dtype": "float32"}, "name": "add_28", "inbound_nodes": [[["conv2d_110", 0, 0, {}], ["conv2d_109", 0, 0, {}]]]}, {"class_name": "Conv2D", "config": {"name": "conv2d_118", "trainable": true, "dtype": "float32", "filters": 64, "kernel_size": [1, 1], "strides": [1, 1], "padding": "valid", "data_format": "channels_last", "dilation_rate": [1, 1], "groups": 1, "activation": "linear", "use_bias": true, "kernel_initializer": {"class_name": "GlorotUniform", "config": {"seed": null}}, "bias_initializer": {"class_name": "Zeros", "config": {}}, "kernel_regularizer": null, "bias_regularizer": null, "activity_regularizer": null, "kernel_constraint": null, "bias_constraint": null}, "name": "conv2d_118", "inbound_nodes": [[["re_lu_17", 0, 0, {}]]]}, {"class_name": "Conv2D", "config": {"name": "conv2d_119", "trainable": true, "dtype": "float32", "filters": 1, "kernel_size": [1, 1], "strides": [1, 1], "padding": "valid", "data_format": "channels_last", "dilation_rate": [1, 1], "groups": 1, "activation": "linear", "use_bias": true, "kernel_initializer": {"class_name": "GlorotUniform", "config": {"seed": null}}, "bias_initializer": {"class_name": "Zeros", "config": {}}, "kernel_regularizer": null, "bias_regularizer": null, "activity_regularizer": null, "kernel_constraint": null, "bias_constraint": null}, "name": "conv2d_119", "inbound_nodes": [[["concatenate_12", 0, 0, {}]]]}, {"class_name": "Conv2D", "config": {"name": "conv2d_121", "trainable": true, "dtype": "float32", "filters": 128, "kernel_size": [3, 3], "strides": [1, 1], "padding": "same", "data_format": "channels_last", "dilation_rate": [1, 1], "groups": 1, "activation": "linear", "use_bias": true, "kernel_initializer": {"class_name": "GlorotUniform", "config": {"seed": null}}, "bias_initializer": {"class_name": "Zeros", "config": {}}, "kernel_regularizer": null, "bias_regularizer": null, "activity_regularizer": null, "kernel_constraint": null, "bias_constraint": null}, "name": "conv2d_121", "inbound_nodes": [[["add_28", 0, 0, {}]]]}, {"class_name": "Conv2D", "config": {"name": "conv2d_111", "trainable": true, "dtype": "float32", "filters": 128, "kernel_size": [1, 1], "strides": [1, 1], "padding": "valid", "data_format": "channels_last", "dilation_rate": [1, 1], "groups": 1, "activation": "linear", "use_bias": true, "kernel_initializer": {"class_name": "GlorotUniform", "config": {"seed": null}}, "bias_initializer": {"class_name": "Zeros", "config": {}}, "kernel_regularizer": null, "bias_regularizer": null, "activity_regularizer": null, "kernel_constraint": null, "bias_constraint": null}, "name": "conv2d_111", "inbound_nodes": [[["add_28", 0, 0, {}]]]}, {"class_name": "TFOpLambda", "config": {"name": "tf.math.sigmoid_12", "trainable": true, "dtype": "float32", "function": "math.sigmoid"}, "name": "tf.math.sigmoid_12", "inbound_nodes": [[["conv2d_118", 0, 0, {}]]]}, {"class_name": "TFOpLambda", "config": {"name": "tf.math.sigmoid_13", "trainable": true, "dtype": "float32", "function": "math.sigmoid"}, "name": "tf.math.sigmoid_13", "inbound_nodes": [[["conv2d_119", 0, 0, {}]]]}, {"class_name": "ReLU", "config": {"name": "re_lu_18", "trainable": true, "dtype": "float32", "max_value": null, "negative_slope": 0.0, "threshold": 0.0}, "name": "re_lu_18", "inbound_nodes": [[["conv2d_121", 0, 0, {}]]]}, {"class_name": "TFOpLambda", "config": {"name": "tf.nn.relu_28", "trainable": true, "dtype": "float32", "function": "nn.relu"}, "name": "tf.nn.relu_28", "inbound_nodes": [[["conv2d_111", 0, 0, {"name": null}]]]}, {"class_name": "TFOpLambda", "config": {"name": "tf.math.multiply_24", "trainable": true, "dtype": "float32", "function": "math.multiply"}, "name": "tf.math.multiply_24", "inbound_nodes": [[["conv2d_116", 0, 0, {"y": ["tf.math.sigmoid_12", 0, 0], "name": null}]]]}, {"class_name": "TFOpLambda", "config": {"name": "tf.math.multiply_25", "trainable": true, "dtype": "float32", "function": "math.multiply"}, "name": "tf.math.multiply_25", "inbound_nodes": [[["conv2d_116", 0, 0, {"y": ["tf.math.sigmoid_13", 0, 0], "name": null}]]]}, {"class_name": "Conv2D", "config": {"name": "conv2d_122", "trainable": true, "dtype": "float32", "filters": 128, "kernel_size": [3, 3], "strides": [1, 1], "padding": "same", "data_format": "channels_last", "dilation_rate": [1, 1], "groups": 1, "activation": "linear", "use_bias": true, "kernel_initializer": {"class_name": "GlorotUniform", "config": {"seed": null}}, "bias_initializer": {"class_name": "Zeros", "config": {}}, "kernel_regularizer": null, "bias_regularizer": null, "activity_regularizer": null, "kernel_constraint": null, "bias_constraint": null}, "name": "conv2d_122", "inbound_nodes": [[["re_lu_18", 0, 0, {}]]]}, {"class_name": "Conv2D", "config": {"name": "conv2d_112", "trainable": true, "dtype": "float32", "filters": 128, "kernel_size": [3, 3], "strides": [1, 1], "padding": "same", "data_format": "channels_last", "dilation_rate": [1, 1], "groups": 1, "activation": "linear", "use_bias": true, "kernel_initializer": {"class_name": "GlorotUniform", "config": {"seed": null}}, "bias_initializer": {"class_name": "Zeros", "config": {}}, "kernel_regularizer": null, "bias_regularizer": null, "activity_regularizer": null, "kernel_constraint": null, "bias_constraint": null}, "name": "conv2d_112", "inbound_nodes": [[["tf.nn.relu_28", 0, 0, {}]]]}, {"class_name": "Concatenate", "config": {"name": "concatenate_13", "trainable": true, "dtype": "float32", "axis": -1}, "name": "concatenate_13", "inbound_nodes": [[["tf.math.multiply_24", 0, 0, {}], ["tf.math.multiply_25", 0, 0, {}]]]}, {"class_name": "GlobalAveragePooling2D", "config": {"name": "global_average_pooling2d_11", "trainable": true, "dtype": "float32", "data_format": "channels_last"}, "name": "global_average_pooling2d_11", "inbound_nodes": [[["conv2d_122", 0, 0, {}]]]}, {"class_name": "TFOpLambda", "config": {"name": "tf.nn.relu_29", "trainable": true, "dtype": "float32", "function": "nn.relu"}, "name": "tf.nn.relu_29", "inbound_nodes": [[["conv2d_112", 0, 0, {"name": null}]]]}, {"class_name": "Conv2D", "config": {"name": "conv2d_120", "trainable": true, "dtype": "float32", "filters": 64, "kernel_size": [1, 1], "strides": [1, 1], "padding": "valid", "data_format": "channels_last", "dilation_rate": [1, 1], "groups": 1, "activation": "linear", "use_bias": true, "kernel_initializer": {"class_name": "GlorotUniform", "config": {"seed": null}}, "bias_initializer": {"class_name": "Zeros", "config": {}}, "kernel_regularizer": null, "bias_regularizer": null, "activity_regularizer": null, "kernel_constraint": null, "bias_constraint": null}, "name": "conv2d_120", "inbound_nodes": [[["concatenate_13", 0, 0, {}]]]}, {"class_name": "TFOpLambda", "config": {"name": "tf.reshape_11", "trainable": true, "dtype": "float32", "function": "reshape"}, "name": "tf.reshape_11", "inbound_nodes": [[["global_average_pooling2d_11", 0, 0, {"shape": [-1, 1, 1, 128]}]]]}, {"class_name": "TFOpLambda", "config": {"name": "tf.math.reduce_max_7", "trainable": true, "dtype": "float32", "function": "math.reduce_max"}, "name": "tf.math.reduce_max_7", "inbound_nodes": [[["conv2d_122", 0, 0, {"axis": -1}]]]}, {"class_name": "TFOpLambda", "config": {"name": "tf.math.reduce_mean_7", "trainable": true, "dtype": "float32", "function": "math.reduce_mean"}, "name": "tf.math.reduce_mean_7", "inbound_nodes": [[["conv2d_122", 0, 0, {"axis": -1}]]]}, {"class_name": "MaxPooling2D", "config": {"name": "max_pooling2d_15", "trainable": true, "dtype": "float32", "pool_size": [2, 2], "padding": "valid", "strides": [2, 2], "data_format": "channels_last"}, "name": "max_pooling2d_15", "inbound_nodes": [[["add_28", 0, 0, {}]]]}, {"class_name": "MaxPooling2D", "config": {"name": "max_pooling2d_14", "trainable": true, "dtype": "float32", "pool_size": [2, 2], "padding": "valid", "strides": [2, 2], "data_format": "channels_last"}, "name": "max_pooling2d_14", "inbound_nodes": [[["tf.nn.relu_29", 0, 0, {}]]]}, {"class_name": "Add", "config": {"name": "add_30", "trainable": true, "dtype": "float32"}, "name": "add_30", "inbound_nodes": [[["add_27", 0, 0, {}], ["conv2d_120", 0, 0, {}]]]}, {"class_name": "Conv2D", "config": {"name": "conv2d_123", "trainable": true, "dtype": "float32", "filters": 16, "kernel_size": [1, 1], "strides": [1, 1], "padding": "valid", "data_format": "channels_last", "dilation_rate": [1, 1], "groups": 1, "activation": "linear", "use_bias": true, "kernel_initializer": {"class_name": "GlorotUniform", "config": {"seed": null}}, "bias_initializer": {"class_name": "Zeros", "config": {}}, "kernel_regularizer": null, "bias_regularizer": null, "activity_regularizer": null, "kernel_constraint": null, "bias_constraint": null}, "name": "conv2d_123", "inbound_nodes": [[["tf.reshape_11", 0, 0, {}]]]}, {"class_name": "TFOpLambda", "config": {"name": "tf.expand_dims_14", "trainable": true, "dtype": "float32", "function": "expand_dims"}, "name": "tf.expand_dims_14", "inbound_nodes": [[["tf.math.reduce_max_7", 0, 0, {"axis": -1}]]]}, {"class_name": "TFOpLambda", "config": {"name": "tf.expand_dims_15", "trainable": true, "dtype": "float32", "function": "expand_dims"}, "name": "tf.expand_dims_15", "inbound_nodes": [[["tf.math.reduce_mean_7", 0, 0, {"axis": -1}]]]}, {"class_name": "Conv2D", "config": {"name": "conv2d_114", "trainable": true, "dtype": "float32", "filters": 256, "kernel_size": [1, 1], "strides": [1, 1], "padding": "valid", "data_format": "channels_last", "dilation_rate": [1, 1], "groups": 1, "activation": "linear", "use_bias": true, "kernel_initializer": {"class_name": "GlorotUniform", "config": {"seed": null}}, "bias_initializer": {"class_name": "Zeros", "config": {}}, "kernel_regularizer": null, "bias_regularizer": null, "activity_regularizer": null, "kernel_constraint": null, "bias_constraint": null}, "name": "conv2d_114", "inbound_nodes": [[["max_pooling2d_15", 0, 0, {}]]]}, {"class_name": "Conv2D", "config": {"name": "conv2d_113", "trainable": true, "dtype": "float32", "filters": 256, "kernel_size": [1, 1], "strides": [1, 1], "padding": "valid", "data_format": "channels_last", "dilation_rate": [1, 1], "groups": 1, "activation": "linear", "use_bias": true, "kernel_initializer": {"class_name": "GlorotUniform", "config": {"seed": null}}, "bias_initializer": {"class_name": "Zeros", "config": {}}, "kernel_regularizer": null, "bias_regularizer": null, "activity_regularizer": null, "kernel_constraint": null, "bias_constraint": null}, "name": "conv2d_113", "inbound_nodes": [[["max_pooling2d_14", 0, 0, {}]]]}, {"class_name": "ReLU", "config": {"name": "re_lu_19", "trainable": true, "dtype": "float32", "max_value": null, "negative_slope": 0.0, "threshold": 0.0}, "name": "re_lu_19", "inbound_nodes": [[["conv2d_123", 0, 0, {}]]]}, {"class_name": "Concatenate", "config": {"name": "concatenate_14", "trainable": true, "dtype": "float32", "axis": -1}, "name": "concatenate_14", "inbound_nodes": [[["tf.expand_dims_14", 0, 0, {}], ["tf.expand_dims_15", 0, 0, {}]]]}, {"class_name": "Add", "config": {"name": "add_29", "trainable": true, "dtype": "float32"}, "name": "add_29", "inbound_nodes": [[["conv2d_114", 0, 0, {}], ["conv2d_113", 0, 0, {}]]]}, {"class_name": "Conv2D", "config": {"name": "conv2d_161", "trainable": true, "dtype": "float32", "filters": 64, "kernel_size": [1, 1], "strides": [1, 1], "padding": "valid", "data_format": "channels_last", "dilation_rate": [1, 1], "groups": 1, "activation": "linear", "use_bias": true, "kernel_initializer": {"class_name": "GlorotUniform", "config": {"seed": null}}, "bias_initializer": {"class_name": "Zeros", "config": {}}, "kernel_regularizer": null, "bias_regularizer": null, "activity_regularizer": null, "kernel_constraint": null, "bias_constraint": null}, "name": "conv2d_161", "inbound_nodes": [[["add_30", 0, 0, {}]]]}, {"class_name": "Conv2D", "config": {"name": "conv2d_124", "trainable": true, "dtype": "float32", "filters": 128, "kernel_size": [1, 1], "strides": [1, 1], "padding": "valid", "data_format": "channels_last", "dilation_rate": [1, 1], "groups": 1, "activation": "linear", "use_bias": true, "kernel_initializer": {"class_name": "GlorotUniform", "config": {"seed": null}}, "bias_initializer": {"class_name": "Zeros", "config": {}}, "kernel_regularizer": null, "bias_regularizer": null, "activity_regularizer": null, "kernel_constraint": null, "bias_constraint": null}, "name": "conv2d_124", "inbound_nodes": [[["re_lu_19", 0, 0, {}]]]}, {"class_name": "Conv2D", "config": {"name": "conv2d_125", "trainable": true, "dtype": "float32", "filters": 1, "kernel_size": [1, 1], "strides": [1, 1], "padding": "valid", "data_format": "channels_last", "dilation_rate": [1, 1], "groups": 1, "activation": "linear", "use_bias": true, "kernel_initializer": {"class_name": "GlorotUniform", "config": {"seed": null}}, "bias_initializer": {"class_name": "Zeros", "config": {}}, "kernel_regularizer": null, "bias_regularizer": null, "activity_regularizer": null, "kernel_constraint": null, "bias_constraint": null}, "name": "conv2d_125", "inbound_nodes": [[["concatenate_14", 0, 0, {}]]]}, {"class_name": "Conv2D", "config": {"name": "conv2d_127", "trainable": true, "dtype": "float32", "filters": 256, "kernel_size": [3, 3], "strides": [1, 1], "padding": "same", "data_format": "channels_last", "dilation_rate": [1, 1], "groups": 1, "activation": "linear", "use_bias": true, "kernel_initializer": {"class_name": "GlorotUniform", "config": {"seed": null}}, "bias_initializer": {"class_name": "Zeros", "config": {}}, "kernel_regularizer": null, "bias_regularizer": null, "activity_regularizer": null, "kernel_constraint": null, "bias_constraint": null}, "name": "conv2d_127", "inbound_nodes": [[["add_29", 0, 0, {}]]]}, {"class_name": "TFOpLambda", "config": {"name": "tf.nn.relu_40", "trainable": true, "dtype": "float32", "function": "nn.relu"}, "name": "tf.nn.relu_40", "inbound_nodes": [[["conv2d_161", 0, 0, {"name": null}]]]}, {"class_name": "TFOpLambda", "config": {"name": "tf.math.sigmoid_14", "trainable": true, "dtype": "float32", "function": "math.sigmoid"}, "name": "tf.math.sigmoid_14", "inbound_nodes": [[["conv2d_124", 0, 0, {}]]]}, {"class_name": "TFOpLambda", "config": {"name": "tf.math.sigmoid_15", "trainable": true, "dtype": "float32", "function": "math.sigmoid"}, "name": "tf.math.sigmoid_15", "inbound_nodes": [[["conv2d_125", 0, 0, {}]]]}, {"class_name": "ReLU", "config": {"name": "re_lu_20", "trainable": true, "dtype": "float32", "max_value": null, "negative_slope": 0.0, "threshold": 0.0}, "name": "re_lu_20", "inbound_nodes": [[["conv2d_127", 0, 0, {}]]]}, {"class_name": "Conv2D", "config": {"name": "conv2d_162", "trainable": true, "dtype": "float32", "filters": 64, "kernel_size": [3, 3], "strides": [1, 1], "padding": "same", "data_format": "channels_last", "dilation_rate": [1, 1], "groups": 1, "activation": "linear", "use_bias": true, "kernel_initializer": {"class_name": "GlorotUniform", "config": {"seed": null}}, "bias_initializer": {"class_name": "Zeros", "config": {}}, "kernel_regularizer": null, "bias_regularizer": null, "activity_regularizer": null, "kernel_constraint": null, "bias_constraint": null}, "name": "conv2d_162", "inbound_nodes": [[["tf.nn.relu_40", 0, 0, {}]]]}, {"class_name": "TFOpLambda", "config": {"name": "tf.math.multiply_26", "trainable": true, "dtype": "float32", "function": "math.multiply"}, "name": "tf.math.multiply_26", "inbound_nodes": [[["conv2d_122", 0, 0, {"y": ["tf.math.sigmoid_14", 0, 0], "name": null}]]]}, {"class_name": "TFOpLambda", "config": {"name": "tf.math.multiply_27", "trainable": true, "dtype": "float32", "function": "math.multiply"}, "name": "tf.math.multiply_27", "inbound_nodes": [[["conv2d_122", 0, 0, {"y": ["tf.math.sigmoid_15", 0, 0], "name": null}]]]}, {"class_name": "Conv2D", "config": {"name": "conv2d_128", "trainable": true, "dtype": "float32", "filters": 256, "kernel_size": [3, 3], "strides": [1, 1], "padding": "same", "data_format": "channels_last", "dilation_rate": [1, 1], "groups": 1, "activation": "linear", "use_bias": true, "kernel_initializer": {"class_name": "GlorotUniform", "config": {"seed": null}}, "bias_initializer": {"class_name": "Zeros", "config": {}}, "kernel_regularizer": null, "bias_regularizer": null, "activity_regularizer": null, "kernel_constraint": null, "bias_constraint": null}, "name": "conv2d_128", "inbound_nodes": [[["re_lu_20", 0, 0, {}]]]}, {"class_name": "TFOpLambda", "config": {"name": "tf.nn.relu_41", "trainable": true, "dtype": "float32", "function": "nn.relu"}, "name": "tf.nn.relu_41", "inbound_nodes": [[["conv2d_162", 0, 0, {"name": null}]]]}, {"class_name": "Concatenate", "config": {"name": "concatenate_15", "trainable": true, "dtype": "float32", "axis": -1}, "name": "concatenate_15", "inbound_nodes": [[["tf.math.multiply_26", 0, 0, {}], ["tf.math.multiply_27", 0, 0, {}]]]}, {"class_name": "GlobalAveragePooling2D", "config": {"name": "global_average_pooling2d_12", "trainable": true, "dtype": "float32", "data_format": "channels_last"}, "name": "global_average_pooling2d_12", "inbound_nodes": [[["conv2d_128", 0, 0, {}]]]}, {"class_name": "MaxPooling2D", "config": {"name": "max_pooling2d_19", "trainable": true, "dtype": "float32", "pool_size": [2, 2], "padding": "valid", "strides": [2, 2], "data_format": "channels_last"}, "name": "max_pooling2d_19", "inbound_nodes": [[["add_30", 0, 0, {}]]]}, {"class_name": "MaxPooling2D", "config": {"name": "max_pooling2d_18", "trainable": true, "dtype": "float32", "pool_size": [2, 2], "padding": "valid", "strides": [2, 2], "data_format": "channels_last"}, "name": "max_pooling2d_18", "inbound_nodes": [[["tf.nn.relu_41", 0, 0, {}]]]}, {"class_name": "Conv2D", "config": {"name": "conv2d_126", "trainable": true, "dtype": "float32", "filters": 128, "kernel_size": [1, 1], "strides": [1, 1], "padding": "valid", "data_format": "channels_last", "dilation_rate": [1, 1], "groups": 1, "activation": "linear", "use_bias": true, "kernel_initializer": {"class_name": "GlorotUniform", "config": {"seed": null}}, "bias_initializer": {"class_name": "Zeros", "config": {}}, "kernel_regularizer": null, "bias_regularizer": null, "activity_regularizer": null, "kernel_constraint": null, "bias_constraint": null}, "name": "conv2d_126", "inbound_nodes": [[["concatenate_15", 0, 0, {}]]]}, {"class_name": "TFOpLambda", "config": {"name": "tf.reshape_12", "trainable": true, "dtype": "float32", "function": "reshape"}, "name": "tf.reshape_12", "inbound_nodes": [[["global_average_pooling2d_12", 0, 0, {"shape": [-1, 1, 1, 256]}]]]}, {"class_name": "TFOpLambda", "config": {"name": "tf.math.reduce_max_8", "trainable": true, "dtype": "float32", "function": "math.reduce_max"}, "name": "tf.math.reduce_max_8", "inbound_nodes": [[["conv2d_128", 0, 0, {"axis": -1}]]]}, {"class_name": "TFOpLambda", "config": {"name": "tf.math.reduce_mean_8", "trainable": true, "dtype": "float32", "function": "math.reduce_mean"}, "name": "tf.math.reduce_mean_8", "inbound_nodes": [[["conv2d_128", 0, 0, {"axis": -1}]]]}, {"class_name": "Conv2D", "config": {"name": "conv2d_164", "trainable": true, "dtype": "float32", "filters": 128, "kernel_size": [1, 1], "strides": [1, 1], "padding": "valid", "data_format": "channels_last", "dilation_rate": [1, 1], "groups": 1, "activation": "linear", "use_bias": true, "kernel_initializer": {"class_name": "GlorotUniform", "config": {"seed": null}}, "bias_initializer": {"class_name": "Zeros", "config": {}}, "kernel_regularizer": null, "bias_regularizer": null, "activity_regularizer": null, "kernel_constraint": null, "bias_constraint": null}, "name": "conv2d_164", "inbound_nodes": [[["max_pooling2d_19", 0, 0, {}]]]}, {"class_name": "Conv2D", "config": {"name": "conv2d_163", "trainable": true, "dtype": "float32", "filters": 128, "kernel_size": [1, 1], "strides": [1, 1], "padding": "valid", "data_format": "channels_last", "dilation_rate": [1, 1], "groups": 1, "activation": "linear", "use_bias": true, "kernel_initializer": {"class_name": "GlorotUniform", "config": {"seed": null}}, "bias_initializer": {"class_name": "Zeros", "config": {}}, "kernel_regularizer": null, "bias_regularizer": null, "activity_regularizer": null, "kernel_constraint": null, "bias_constraint": null}, "name": "conv2d_163", "inbound_nodes": [[["max_pooling2d_18", 0, 0, {}]]]}, {"class_name": "Add", "config": {"name": "add_31", "trainable": true, "dtype": "float32"}, "name": "add_31", "inbound_nodes": [[["add_28", 0, 0, {}], ["conv2d_126", 0, 0, {}]]]}, {"class_name": "Conv2D", "config": {"name": "conv2d_129", "trainable": true, "dtype": "float32", "filters": 32, "kernel_size": [1, 1], "strides": [1, 1], "padding": "valid", "data_format": "channels_last", "dilation_rate": [1, 1], "groups": 1, "activation": "linear", "use_bias": true, "kernel_initializer": {"class_name": "GlorotUniform", "config": {"seed": null}}, "bias_initializer": {"class_name": "Zeros", "config": {}}, "kernel_regularizer": null, "bias_regularizer": null, "activity_regularizer": null, "kernel_constraint": null, "bias_constraint": null}, "name": "conv2d_129", "inbound_nodes": [[["tf.reshape_12", 0, 0, {}]]]}, {"class_name": "TFOpLambda", "config": {"name": "tf.expand_dims_16", "trainable": true, "dtype": "float32", "function": "expand_dims"}, "name": "tf.expand_dims_16", "inbound_nodes": [[["tf.math.reduce_max_8", 0, 0, {"axis": -1}]]]}, {"class_name": "TFOpLambda", "config": {"name": "tf.expand_dims_17", "trainable": true, "dtype": "float32", "function": "expand_dims"}, "name": "tf.expand_dims_17", "inbound_nodes": [[["tf.math.reduce_mean_8", 0, 0, {"axis": -1}]]]}, {"class_name": "Add", "config": {"name": "add_42", "trainable": true, "dtype": "float32"}, "name": "add_42", "inbound_nodes": [[["conv2d_164", 0, 0, {}], ["conv2d_163", 0, 0, {}]]]}, {"class_name": "ReLU", "config": {"name": "re_lu_21", "trainable": true, "dtype": "float32", "max_value": null, "negative_slope": 0.0, "threshold": 0.0}, "name": "re_lu_21", "inbound_nodes": [[["conv2d_129", 0, 0, {}]]]}, {"class_name": "Concatenate", "config": {"name": "concatenate_16", "trainable": true, "dtype": "float32", "axis": -1}, "name": "concatenate_16", "inbound_nodes": [[["tf.expand_dims_16", 0, 0, {}], ["tf.expand_dims_17", 0, 0, {}]]]}, {"class_name": "Conv2D", "config": {"name": "conv2d_165", "trainable": true, "dtype": "float32", "filters": 128, "kernel_size": [1, 1], "strides": [1, 1], "padding": "valid", "data_format": "channels_last", "dilation_rate": [1, 1], "groups": 1, "activation": "linear", "use_bias": true, "kernel_initializer": {"class_name": "GlorotUniform", "config": {"seed": null}}, "bias_initializer": {"class_name": "Zeros", "config": {}}, "kernel_regularizer": null, "bias_regularizer": null, "activity_regularizer": null, "kernel_constraint": null, "bias_constraint": null}, "name": "conv2d_165", "inbound_nodes": [[["add_42", 0, 0, {}]]]}, {"class_name": "Conv2D", "config": {"name": "conv2d_169", "trainable": true, "dtype": "float32", "filters": 128, "kernel_size": [1, 1], "strides": [1, 1], "padding": "valid", "data_format": "channels_last", "dilation_rate": [1, 1], "groups": 1, "activation": "linear", "use_bias": true, "kernel_initializer": {"class_name": "GlorotUniform", "config": {"seed": null}}, "bias_initializer": {"class_name": "Zeros", "config": {}}, "kernel_regularizer": null, "bias_regularizer": null, "activity_regularizer": null, "kernel_constraint": null, "bias_constraint": null}, "name": "conv2d_169", "inbound_nodes": [[["add_31", 0, 0, {}]]]}, {"class_name": "Conv2D", "config": {"name": "conv2d_130", "trainable": true, "dtype": "float32", "filters": 256, "kernel_size": [1, 1], "strides": [1, 1], "padding": "valid", "data_format": "channels_last", "dilation_rate": [1, 1], "groups": 1, "activation": "linear", "use_bias": true, "kernel_initializer": {"class_name": "GlorotUniform", "config": {"seed": null}}, "bias_initializer": {"class_name": "Zeros", "config": {}}, "kernel_regularizer": null, "bias_regularizer": null, "activity_regularizer": null, "kernel_constraint": null, "bias_constraint": null}, "name": "conv2d_130", "inbound_nodes": [[["re_lu_21", 0, 0, {}]]]}, {"class_name": "Conv2D", "config": {"name": "conv2d_131", "trainable": true, "dtype": "float32", "filters": 1, "kernel_size": [1, 1], "strides": [1, 1], "padding": "valid", "data_format": "channels_last", "dilation_rate": [1, 1], "groups": 1, "activation": "linear", "use_bias": true, "kernel_initializer": {"class_name": "GlorotUniform", "config": {"seed": null}}, "bias_initializer": {"class_name": "Zeros", "config": {}}, "kernel_regularizer": null, "bias_regularizer": null, "activity_regularizer": null, "kernel_constraint": null, "bias_constraint": null}, "name": "conv2d_131", "inbound_nodes": [[["concatenate_16", 0, 0, {}]]]}, {"class_name": "TFOpLambda", "config": {"name": "tf.nn.relu_42", "trainable": true, "dtype": "float32", "function": "nn.relu"}, "name": "tf.nn.relu_42", "inbound_nodes": [[["conv2d_165", 0, 0, {"name": null}]]]}, {"class_name": "TFOpLambda", "config": {"name": "tf.nn.relu_44", "trainable": true, "dtype": "float32", "function": "nn.relu"}, "name": "tf.nn.relu_44", "inbound_nodes": [[["conv2d_169", 0, 0, {"name": null}]]]}, {"class_name": "TFOpLambda", "config": {"name": "tf.math.sigmoid_16", "trainable": true, "dtype": "float32", "function": "math.sigmoid"}, "name": "tf.math.sigmoid_16", "inbound_nodes": [[["conv2d_130", 0, 0, {}]]]}, {"class_name": "TFOpLambda", "config": {"name": "tf.math.sigmoid_17", "trainable": true, "dtype": "float32", "function": "math.sigmoid"}, "name": "tf.math.sigmoid_17", "inbound_nodes": [[["conv2d_131", 0, 0, {}]]]}, {"class_name": "Conv2D", "config": {"name": "conv2d_166", "trainable": true, "dtype": "float32", "filters": 128, "kernel_size": [3, 3], "strides": [1, 1], "padding": "same", "data_format": "channels_last", "dilation_rate": [1, 1], "groups": 1, "activation": "linear", "use_bias": true, "kernel_initializer": {"class_name": "GlorotUniform", "config": {"seed": null}}, "bias_initializer": {"class_name": "Zeros", "config": {}}, "kernel_regularizer": null, "bias_regularizer": null, "activity_regularizer": null, "kernel_constraint": null, "bias_constraint": null}, "name": "conv2d_166", "inbound_nodes": [[["tf.nn.relu_42", 0, 0, {}]]]}, {"class_name": "Conv2D", "config": {"name": "conv2d_170", "trainable": true, "dtype": "float32", "filters": 128, "kernel_size": [3, 3], "strides": [1, 1], "padding": "same", "data_format": "channels_last", "dilation_rate": [1, 1], "groups": 1, "activation": "linear", "use_bias": true, "kernel_initializer": {"class_name": "GlorotUniform", "config": {"seed": null}}, "bias_initializer": {"class_name": "Zeros", "config": {}}, "kernel_regularizer": null, "bias_regularizer": null, "activity_regularizer": null, "kernel_constraint": null, "bias_constraint": null}, "name": "conv2d_170", "inbound_nodes": [[["tf.nn.relu_44", 0, 0, {}]]]}, {"class_name": "TFOpLambda", "config": {"name": "tf.math.multiply_28", "trainable": true, "dtype": "float32", "function": "math.multiply"}, "name": "tf.math.multiply_28", "inbound_nodes": [[["conv2d_128", 0, 0, {"y": ["tf.math.sigmoid_16", 0, 0], "name": null}]]]}, {"class_name": "TFOpLambda", "config": {"name": "tf.math.multiply_29", "trainable": true, "dtype": "float32", "function": "math.multiply"}, "name": "tf.math.multiply_29", "inbound_nodes": [[["conv2d_128", 0, 0, {"y": ["tf.math.sigmoid_17", 0, 0], "name": null}]]]}, {"class_name": "TFOpLambda", "config": {"name": "tf.nn.relu_43", "trainable": true, "dtype": "float32", "function": "nn.relu"}, "name": "tf.nn.relu_43", "inbound_nodes": [[["conv2d_166", 0, 0, {"name": null}]]]}, {"class_name": "TFOpLambda", "config": {"name": "tf.nn.relu_45", "trainable": true, "dtype": "float32", "function": "nn.relu"}, "name": "tf.nn.relu_45", "inbound_nodes": [[["conv2d_170", 0, 0, {"name": null}]]]}, {"class_name": "Concatenate", "config": {"name": "concatenate_17", "trainable": true, "dtype": "float32", "axis": -1}, "name": "concatenate_17", "inbound_nodes": [[["tf.math.multiply_28", 0, 0, {}], ["tf.math.multiply_29", 0, 0, {}]]]}, {"class_name": "MaxPooling2D", "config": {"name": "max_pooling2d_21", "trainable": true, "dtype": "float32", "pool_size": [2, 2], "padding": "valid", "strides": [2, 2], "data_format": "channels_last"}, "name": "max_pooling2d_21", "inbound_nodes": [[["add_42", 0, 0, {}]]]}, {"class_name": "MaxPooling2D", "config": {"name": "max_pooling2d_20", "trainable": true, "dtype": "float32", "pool_size": [2, 2], "padding": "valid", "strides": [2, 2], "data_format": "channels_last"}, "name": "max_pooling2d_20", "inbound_nodes": [[["tf.nn.relu_43", 0, 0, {}]]]}, {"class_name": "MaxPooling2D", "config": {"name": "max_pooling2d_23", "trainable": true, "dtype": "float32", "pool_size": [2, 2], "padding": "valid", "strides": [2, 2], "data_format": "channels_last"}, "name": "max_pooling2d_23", "inbound_nodes": [[["add_31", 0, 0, {}]]]}, {"class_name": "MaxPooling2D", "config": {"name": "max_pooling2d_22", "trainable": true, "dtype": "float32", "pool_size": [2, 2], "padding": "valid", "strides": [2, 2], "data_format": "channels_last"}, "name": "max_pooling2d_22", "inbound_nodes": [[["tf.nn.relu_45", 0, 0, {}]]]}, {"class_name": "Conv2D", "config": {"name": "conv2d_132", "trainable": true, "dtype": "float32", "filters": 256, "kernel_size": [1, 1], "strides": [1, 1], "padding": "valid", "data_format": "channels_last", "dilation_rate": [1, 1], "groups": 1, "activation": "linear", "use_bias": true, "kernel_initializer": {"class_name": "GlorotUniform", "config": {"seed": null}}, "bias_initializer": {"class_name": "Zeros", "config": {}}, "kernel_regularizer": null, "bias_regularizer": null, "activity_regularizer": null, "kernel_constraint": null, "bias_constraint": null}, "name": "conv2d_132", "inbound_nodes": [[["concatenate_17", 0, 0, {}]]]}, {"class_name": "Conv2D", "config": {"name": "conv2d_168", "trainable": true, "dtype": "float32", "filters": 256, "kernel_size": [1, 1], "strides": [1, 1], "padding": "valid", "data_format": "channels_last", "dilation_rate": [1, 1], "groups": 1, "activation": "linear", "use_bias": true, "kernel_initializer": {"class_name": "GlorotUniform", "config": {"seed": null}}, "bias_initializer": {"class_name": "Zeros", "config": {}}, "kernel_regularizer": null, "bias_regularizer": null, "activity_regularizer": null, "kernel_constraint": null, "bias_constraint": null}, "name": "conv2d_168", "inbound_nodes": [[["max_pooling2d_21", 0, 0, {}]]]}, {"class_name": "Conv2D", "config": {"name": "conv2d_167", "trainable": true, "dtype": "float32", "filters": 256, "kernel_size": [1, 1], "strides": [1, 1], "padding": "valid", "data_format": "channels_last", "dilation_rate": [1, 1], "groups": 1, "activation": "linear", "use_bias": true, "kernel_initializer": {"class_name": "GlorotUniform", "config": {"seed": null}}, "bias_initializer": {"class_name": "Zeros", "config": {}}, "kernel_regularizer": null, "bias_regularizer": null, "activity_regularizer": null, "kernel_constraint": null, "bias_constraint": null}, "name": "conv2d_167", "inbound_nodes": [[["max_pooling2d_20", 0, 0, {}]]]}, {"class_name": "Conv2D", "config": {"name": "conv2d_172", "trainable": true, "dtype": "float32", "filters": 256, "kernel_size": [1, 1], "strides": [1, 1], "padding": "valid", "data_format": "channels_last", "dilation_rate": [1, 1], "groups": 1, "activation": "linear", "use_bias": true, "kernel_initializer": {"class_name": "GlorotUniform", "config": {"seed": null}}, "bias_initializer": {"class_name": "Zeros", "config": {}}, "kernel_regularizer": null, "bias_regularizer": null, "activity_regularizer": null, "kernel_constraint": null, "bias_constraint": null}, "name": "conv2d_172", "inbound_nodes": [[["max_pooling2d_23", 0, 0, {}]]]}, {"class_name": "Conv2D", "config": {"name": "conv2d_171", "trainable": true, "dtype": "float32", "filters": 256, "kernel_size": [1, 1], "strides": [1, 1], "padding": "valid", "data_format": "channels_last", "dilation_rate": [1, 1], "groups": 1, "activation": "linear", "use_bias": true, "kernel_initializer": {"class_name": "GlorotUniform", "config": {"seed": null}}, "bias_initializer": {"class_name": "Zeros", "config": {}}, "kernel_regularizer": null, "bias_regularizer": null, "activity_regularizer": null, "kernel_constraint": null, "bias_constraint": null}, "name": "conv2d_171", "inbound_nodes": [[["max_pooling2d_22", 0, 0, {}]]]}, {"class_name": "Add", "config": {"name": "add_32", "trainable": true, "dtype": "float32"}, "name": "add_32", "inbound_nodes": [[["add_29", 0, 0, {}], ["conv2d_132", 0, 0, {}]]]}, {"class_name": "Add", "config": {"name": "add_43", "trainable": true, "dtype": "float32"}, "name": "add_43", "inbound_nodes": [[["conv2d_168", 0, 0, {}], ["conv2d_167", 0, 0, {}]]]}, {"class_name": "Add", "config": {"name": "add_44", "trainable": true, "dtype": "float32"}, "name": "add_44", "inbound_nodes": [[["conv2d_172", 0, 0, {}], ["conv2d_171", 0, 0, {}]]]}, {"class_name": "Conv2D", "config": {"name": "conv2d_137", "trainable": true, "dtype": "float32", "filters": 256, "kernel_size": [1, 1], "strides": [1, 1], "padding": "valid", "data_format": "channels_last", "dilation_rate": [1, 1], "groups": 1, "activation": "linear", "use_bias": true, "kernel_initializer": {"class_name": "GlorotUniform", "config": {"seed": null}}, "bias_initializer": {"class_name": "Zeros", "config": {}}, "kernel_regularizer": null, "bias_regularizer": null, "activity_regularizer": null, "kernel_constraint": null, "bias_constraint": null}, "name": "conv2d_137", "inbound_nodes": [[["add_32", 0, 0, {}]]]}, {"class_name": "Add", "config": {"name": "add_45", "trainable": true, "dtype": "float32"}, "name": "add_45", "inbound_nodes": [[["add_43", 0, 0, {}], ["add_44", 0, 0, {}], ["add_32", 0, 0, {}]]]}, {"class_name": "TFOpLambda", "config": {"name": "tf.nn.relu_32", "trainable": true, "dtype": "float32", "function": "nn.relu"}, "name": "tf.nn.relu_32", "inbound_nodes": [[["conv2d_137", 0, 0, {"name": null}]]]}, {"class_name": "GlobalAveragePooling2D", "config": {"name": "global_average_pooling2d_15", "trainable": true, "dtype": "float32", "data_format": "channels_last"}, "name": "global_average_pooling2d_15", "inbound_nodes": [[["add_45", 0, 0, {}]]]}, {"class_name": "Conv2D", "config": {"name": "conv2d_138", "trainable": true, "dtype": "float32", "filters": 256, "kernel_size": [3, 3], "strides": [1, 1], "padding": "same", "data_format": "channels_last", "dilation_rate": [1, 1], "groups": 1, "activation": "linear", "use_bias": true, "kernel_initializer": {"class_name": "GlorotUniform", "config": {"seed": null}}, "bias_initializer": {"class_name": "Zeros", "config": {}}, "kernel_regularizer": null, "bias_regularizer": null, "activity_regularizer": null, "kernel_constraint": null, "bias_constraint": null}, "name": "conv2d_138", "inbound_nodes": [[["tf.nn.relu_32", 0, 0, {}]]]}, {"class_name": "TFOpLambda", "config": {"name": "tf.reshape_15", "trainable": true, "dtype": "float32", "function": "reshape"}, "name": "tf.reshape_15", "inbound_nodes": [[["global_average_pooling2d_15", 0, 0, {"shape": [-1, 1, 1, 256]}]]]}, {"class_name": "TFOpLambda", "config": {"name": "tf.nn.relu_33", "trainable": true, "dtype": "float32", "function": "nn.relu"}, "name": "tf.nn.relu_33", "inbound_nodes": [[["conv2d_138", 0, 0, {"name": null}]]]}, {"class_name": "Conv2D", "config": {"name": "conv2d_173", "trainable": true, "dtype": "float32", "filters": 32, "kernel_size": [1, 1], "strides": [1, 1], "padding": "valid", "data_format": "channels_last", "dilation_rate": [1, 1], "groups": 1, "activation": "linear", "use_bias": true, "kernel_initializer": {"class_name": "GlorotUniform", "config": {"seed": null}}, "bias_initializer": {"class_name": "Zeros", "config": {}}, "kernel_regularizer": null, "bias_regularizer": null, "activity_regularizer": null, "kernel_constraint": null, "bias_constraint": null}, "name": "conv2d_173", "inbound_nodes": [[["tf.reshape_15", 0, 0, {}]]]}, {"class_name": "UpSampling2D", "config": {"name": "up_sampling2d_17", "trainable": true, "dtype": "float32", "size": [2, 2], "data_format": "channels_last", "interpolation": "nearest"}, "name": "up_sampling2d_17", "inbound_nodes": [[["add_32", 0, 0, {}]]]}, {"class_name": "UpSampling2D", "config": {"name": "up_sampling2d_16", "trainable": true, "dtype": "float32", "size": [2, 2], "data_format": "channels_last", "interpolation": "nearest"}, "name": "up_sampling2d_16", "inbound_nodes": [[["tf.nn.relu_33", 0, 0, {}]]]}, {"class_name": "ReLU", "config": {"name": "re_lu_24", "trainable": true, "dtype": "float32", "max_value": null, "negative_slope": 0.0, "threshold": 0.0}, "name": "re_lu_24", "inbound_nodes": [[["conv2d_173", 0, 0, {}]]]}, {"class_name": "Conv2D", "config": {"name": "conv2d_140", "trainable": true, "dtype": "float32", "filters": 128, "kernel_size": [1, 1], "strides": [1, 1], "padding": "valid", "data_format": "channels_last", "dilation_rate": [1, 1], "groups": 1, "activation": "linear", "use_bias": true, "kernel_initializer": {"class_name": "GlorotUniform", "config": {"seed": null}}, "bias_initializer": {"class_name": "Zeros", "config": {}}, "kernel_regularizer": null, "bias_regularizer": null, "activity_regularizer": null, "kernel_constraint": null, "bias_constraint": null}, "name": "conv2d_140", "inbound_nodes": [[["up_sampling2d_17", 0, 0, {}]]]}, {"class_name": "Conv2D", "config": {"name": "conv2d_139", "trainable": true, "dtype": "float32", "filters": 128, "kernel_size": [1, 1], "strides": [1, 1], "padding": "valid", "data_format": "channels_last", "dilation_rate": [1, 1], "groups": 1, "activation": "linear", "use_bias": true, "kernel_initializer": {"class_name": "GlorotUniform", "config": {"seed": null}}, "bias_initializer": {"class_name": "Zeros", "config": {}}, "kernel_regularizer": null, "bias_regularizer": null, "activity_regularizer": null, "kernel_constraint": null, "bias_constraint": null}, "name": "conv2d_139", "inbound_nodes": [[["up_sampling2d_16", 0, 0, {}]]]}, {"class_name": "Conv2D", "config": {"name": "conv2d_174", "trainable": true, "dtype": "float32", "filters": 256, "kernel_size": [1, 1], "strides": [1, 1], "padding": "valid", "data_format": "channels_last", "dilation_rate": [1, 1], "groups": 1, "activation": "linear", "use_bias": true, "kernel_initializer": {"class_name": "GlorotUniform", "config": {"seed": null}}, "bias_initializer": {"class_name": "Zeros", "config": {}}, "kernel_regularizer": null, "bias_regularizer": null, "activity_regularizer": null, "kernel_constraint": null, "bias_constraint": null}, "name": "conv2d_174", "inbound_nodes": [[["re_lu_24", 0, 0, {}]]]}, {"class_name": "Conv2D", "config": {"name": "conv2d_175", "trainable": true, "dtype": "float32", "filters": 256, "kernel_size": [1, 1], "strides": [1, 1], "padding": "valid", "data_format": "channels_last", "dilation_rate": [1, 1], "groups": 1, "activation": "linear", "use_bias": true, "kernel_initializer": {"class_name": "GlorotUniform", "config": {"seed": null}}, "bias_initializer": {"class_name": "Zeros", "config": {}}, "kernel_regularizer": null, "bias_regularizer": null, "activity_regularizer": null, "kernel_constraint": null, "bias_constraint": null}, "name": "conv2d_175", "inbound_nodes": [[["re_lu_24", 0, 0, {}]]]}, {"class_name": "Conv2D", "config": {"name": "conv2d_176", "trainable": true, "dtype": "float32", "filters": 256, "kernel_size": [1, 1], "strides": [1, 1], "padding": "valid", "data_format": "channels_last", "dilation_rate": [1, 1], "groups": 1, "activation": "linear", "use_bias": true, "kernel_initializer": {"class_name": "GlorotUniform", "config": {"seed": null}}, "bias_initializer": {"class_name": "Zeros", "config": {}}, "kernel_regularizer": null, "bias_regularizer": null, "activity_regularizer": null, "kernel_constraint": null, "bias_constraint": null}, "name": "conv2d_176", "inbound_nodes": [[["re_lu_24", 0, 0, {}]]]}, {"class_name": "Add", "config": {"name": "add_34", "trainable": true, "dtype": "float32"}, "name": "add_34", "inbound_nodes": [[["conv2d_140", 0, 0, {}], ["conv2d_139", 0, 0, {}]]]}, {"class_name": "TFOpLambda", "config": {"name": "tf.nn.softmax_18", "trainable": true, "dtype": "float32", "function": "nn.softmax"}, "name": "tf.nn.softmax_18", "inbound_nodes": [[["conv2d_174", 0, 0, {}]]]}, {"class_name": "TFOpLambda", "config": {"name": "tf.nn.softmax_19", "trainable": true, "dtype": "float32", "function": "nn.softmax"}, "name": "tf.nn.softmax_19", "inbound_nodes": [[["conv2d_175", 0, 0, {}]]]}, {"class_name": "TFOpLambda", "config": {"name": "tf.nn.softmax_20", "trainable": true, "dtype": "float32", "function": "nn.softmax"}, "name": "tf.nn.softmax_20", "inbound_nodes": [[["conv2d_176", 0, 0, {}]]]}, {"class_name": "Conv2D", "config": {"name": "conv2d_133", "trainable": true, "dtype": "float32", "filters": 128, "kernel_size": [1, 1], "strides": [1, 1], "padding": "valid", "data_format": "channels_last", "dilation_rate": [1, 1], "groups": 1, "activation": "linear", "use_bias": true, "kernel_initializer": {"class_name": "GlorotUniform", "config": {"seed": null}}, "bias_initializer": {"class_name": "Zeros", "config": {}}, "kernel_regularizer": null, "bias_regularizer": null, "activity_regularizer": null, "kernel_constraint": null, "bias_constraint": null}, "name": "conv2d_133", "inbound_nodes": [[["add_31", 0, 0, {}]]]}, {"class_name": "Conv2D", "config": {"name": "conv2d_141", "trainable": true, "dtype": "float32", "filters": 128, "kernel_size": [1, 1], "strides": [1, 1], "padding": "valid", "data_format": "channels_last", "dilation_rate": [1, 1], "groups": 1, "activation": "linear", "use_bias": true, "kernel_initializer": {"class_name": "GlorotUniform", "config": {"seed": null}}, "bias_initializer": {"class_name": "Zeros", "config": {}}, "kernel_regularizer": null, "bias_regularizer": null, "activity_regularizer": null, "kernel_constraint": null, "bias_constraint": null}, "name": "conv2d_141", "inbound_nodes": [[["add_34", 0, 0, {}]]]}, {"class_name": "TFOpLambda", "config": {"name": "tf.math.multiply_36", "trainable": true, "dtype": "float32", "function": "math.multiply"}, "name": "tf.math.multiply_36", "inbound_nodes": [[["add_43", 0, 0, {"y": ["tf.nn.softmax_18", 0, 0], "name": null}]]]}, {"class_name": "TFOpLambda", "config": {"name": "tf.math.multiply_37", "trainable": true, "dtype": "float32", "function": "math.multiply"}, "name": "tf.math.multiply_37", "inbound_nodes": [[["add_44", 0, 0, {"y": ["tf.nn.softmax_19", 0, 0], "name": null}]]]}, {"class_name": "TFOpLambda", "config": {"name": "tf.math.multiply_38", "trainable": true, "dtype": "float32", "function": "math.multiply"}, "name": "tf.math.multiply_38", "inbound_nodes": [[["add_32", 0, 0, {"y": ["tf.nn.softmax_20", 0, 0], "name": null}]]]}, {"class_name": "TFOpLambda", "config": {"name": "tf.nn.relu_30", "trainable": true, "dtype": "float32", "function": "nn.relu"}, "name": "tf.nn.relu_30", "inbound_nodes": [[["conv2d_133", 0, 0, {"name": null}]]]}, {"class_name": "TFOpLambda", "config": {"name": "tf.nn.relu_34", "trainable": true, "dtype": "float32", "function": "nn.relu"}, "name": "tf.nn.relu_34", "inbound_nodes": [[["conv2d_141", 0, 0, {"name": null}]]]}, {"class_name": "Add", "config": {"name": "add_46", "trainable": true, "dtype": "float32"}, "name": "add_46", "inbound_nodes": [[["tf.math.multiply_36", 0, 0, {}], ["tf.math.multiply_37", 0, 0, {}], ["tf.math.multiply_38", 0, 0, {}]]]}, {"class_name": "Conv2D", "config": {"name": "conv2d_134", "trainable": true, "dtype": "float32", "filters": 128, "kernel_size": [3, 3], "strides": [1, 1], "padding": "same", "data_format": "channels_last", "dilation_rate": [1, 1], "groups": 1, "activation": "linear", "use_bias": true, "kernel_initializer": {"class_name": "GlorotUniform", "config": {"seed": null}}, "bias_initializer": {"class_name": "Zeros", "config": {}}, "kernel_regularizer": null, "bias_regularizer": null, "activity_regularizer": null, "kernel_constraint": null, "bias_constraint": null}, "name": "conv2d_134", "inbound_nodes": [[["tf.nn.relu_30", 0, 0, {}]]]}, {"class_name": "Conv2D", "config": {"name": "conv2d_142", "trainable": true, "dtype": "float32", "filters": 128, "kernel_size": [3, 3], "strides": [1, 1], "padding": "same", "data_format": "channels_last", "dilation_rate": [1, 1], "groups": 1, "activation": "linear", "use_bias": true, "kernel_initializer": {"class_name": "GlorotUniform", "config": {"seed": null}}, "bias_initializer": {"class_name": "Zeros", "config": {}}, "kernel_regularizer": null, "bias_regularizer": null, "activity_regularizer": null, "kernel_constraint": null, "bias_constraint": null}, "name": "conv2d_142", "inbound_nodes": [[["tf.nn.relu_34", 0, 0, {}]]]}, {"class_name": "Conv2D", "config": {"name": "conv2d_193", "trainable": true, "dtype": "float32", "filters": 256, "kernel_size": [3, 3], "strides": [1, 1], "padding": "same", "data_format": "channels_last", "dilation_rate": [1, 1], "groups": 1, "activation": "linear", "use_bias": true, "kernel_initializer": {"class_name": "GlorotUniform", "config": {"seed": null}}, "bias_initializer": {"class_name": "Zeros", "config": {}}, "kernel_regularizer": null, "bias_regularizer": null, "activity_regularizer": null, "kernel_constraint": null, "bias_constraint": null}, "name": "conv2d_193", "inbound_nodes": [[["add_46", 0, 0, {}]]]}, {"class_name": "TFOpLambda", "config": {"name": "tf.nn.relu_31", "trainable": true, "dtype": "float32", "function": "nn.relu"}, "name": "tf.nn.relu_31", "inbound_nodes": [[["conv2d_134", 0, 0, {"name": null}]]]}, {"class_name": "TFOpLambda", "config": {"name": "tf.nn.relu_35", "trainable": true, "dtype": "float32", "function": "nn.relu"}, "name": "tf.nn.relu_35", "inbound_nodes": [[["conv2d_142", 0, 0, {"name": null}]]]}, {"class_name": "ReLU", "config": {"name": "re_lu_29", "trainable": true, "dtype": "float32", "max_value": null, "negative_slope": 0.0, "threshold": 0.0}, "name": "re_lu_29", "inbound_nodes": [[["conv2d_193", 0, 0, {}]]]}, {"class_name": "UpSampling2D", "config": {"name": "up_sampling2d_15", "trainable": true, "dtype": "float32", "size": [2, 2], "data_format": "channels_last", "interpolation": "nearest"}, "name": "up_sampling2d_15", "inbound_nodes": [[["add_31", 0, 0, {}]]]}, {"class_name": "UpSampling2D", "config": {"name": "up_sampling2d_14", "trainable": true, "dtype": "float32", "size": [2, 2], "data_format": "channels_last", "interpolation": "nearest"}, "name": "up_sampling2d_14", "inbound_nodes": [[["tf.nn.relu_31", 0, 0, {}]]]}, {"class_name": "UpSampling2D", "config": {"name": "up_sampling2d_19", "trainable": true, "dtype": "float32", "size": [2, 2], "data_format": "channels_last", "interpolation": "nearest"}, "name": "up_sampling2d_19", "inbound_nodes": [[["add_34", 0, 0, {}]]]}, {"class_name": "UpSampling2D", "config": {"name": "up_sampling2d_18", "trainable": true, "dtype": "float32", "size": [2, 2], "data_format": "channels_last", "interpolation": "nearest"}, "name": "up_sampling2d_18", "inbound_nodes": [[["tf.nn.relu_35", 0, 0, {}]]]}, {"class_name": "Conv2D", "config": {"name": "conv2d_194", "trainable": true, "dtype": "float32", "filters": 256, "kernel_size": [3, 3], "strides": [1, 1], "padding": "same", "data_format": "channels_last", "dilation_rate": [1, 1], "groups": 1, "activation": "linear", "use_bias": true, "kernel_initializer": {"class_name": "GlorotUniform", "config": {"seed": null}}, "bias_initializer": {"class_name": "Zeros", "config": {}}, "kernel_regularizer": null, "bias_regularizer": null, "activity_regularizer": null, "kernel_constraint": null, "bias_constraint": null}, "name": "conv2d_194", "inbound_nodes": [[["re_lu_29", 0, 0, {}]]]}, {"class_name": "Conv2D", "config": {"name": "conv2d_136", "trainable": true, "dtype": "float32", "filters": 64, "kernel_size": [1, 1], "strides": [1, 1], "padding": "valid", "data_format": "channels_last", "dilation_rate": [1, 1], "groups": 1, "activation": "linear", "use_bias": true, "kernel_initializer": {"class_name": "GlorotUniform", "config": {"seed": null}}, "bias_initializer": {"class_name": "Zeros", "config": {}}, "kernel_regularizer": null, "bias_regularizer": null, "activity_regularizer": null, "kernel_constraint": null, "bias_constraint": null}, "name": "conv2d_136", "inbound_nodes": [[["up_sampling2d_15", 0, 0, {}]]]}, {"class_name": "Conv2D", "config": {"name": "conv2d_135", "trainable": true, "dtype": "float32", "filters": 64, "kernel_size": [1, 1], "strides": [1, 1], "padding": "valid", "data_format": "channels_last", "dilation_rate": [1, 1], "groups": 1, "activation": "linear", "use_bias": true, "kernel_initializer": {"class_name": "GlorotUniform", "config": {"seed": null}}, "bias_initializer": {"class_name": "Zeros", "config": {}}, "kernel_regularizer": null, "bias_regularizer": null, "activity_regularizer": null, "kernel_constraint": null, "bias_constraint": null}, "name": "conv2d_135", "inbound_nodes": [[["up_sampling2d_14", 0, 0, {}]]]}, {"class_name": "Conv2D", "config": {"name": "conv2d_144", "trainable": true, "dtype": "float32", "filters": 64, "kernel_size": [1, 1], "strides": [1, 1], "padding": "valid", "data_format": "channels_last", "dilation_rate": [1, 1], "groups": 1, "activation": "linear", "use_bias": true, "kernel_initializer": {"class_name": "GlorotUniform", "config": {"seed": null}}, "bias_initializer": {"class_name": "Zeros", "config": {}}, "kernel_regularizer": null, "bias_regularizer": null, "activity_regularizer": null, "kernel_constraint": null, "bias_constraint": null}, "name": "conv2d_144", "inbound_nodes": [[["up_sampling2d_19", 0, 0, {}]]]}, {"class_name": "Conv2D", "config": {"name": "conv2d_143", "trainable": true, "dtype": "float32", "filters": 64, "kernel_size": [1, 1], "strides": [1, 1], "padding": "valid", "data_format": "channels_last", "dilation_rate": [1, 1], "groups": 1, "activation": "linear", "use_bias": true, "kernel_initializer": {"class_name": "GlorotUniform", "config": {"seed": null}}, "bias_initializer": {"class_name": "Zeros", "config": {}}, "kernel_regularizer": null, "bias_regularizer": null, "activity_regularizer": null, "kernel_constraint": null, "bias_constraint": null}, "name": "conv2d_143", "inbound_nodes": [[["up_sampling2d_18", 0, 0, {}]]]}, {"class_name": "GlobalAveragePooling2D", "config": {"name": "global_average_pooling2d_18", "trainable": true, "dtype": "float32", "data_format": "channels_last"}, "name": "global_average_pooling2d_18", "inbound_nodes": [[["conv2d_194", 0, 0, {}]]]}, {"class_name": "Add", "config": {"name": "add_33", "trainable": true, "dtype": "float32"}, "name": "add_33", "inbound_nodes": [[["conv2d_136", 0, 0, {}], ["conv2d_135", 0, 0, {}]]]}, {"class_name": "Add", "config": {"name": "add_35", "trainable": true, "dtype": "float32"}, "name": "add_35", "inbound_nodes": [[["conv2d_144", 0, 0, {}], ["conv2d_143", 0, 0, {}]]]}, {"class_name": "TFOpLambda", "config": {"name": "tf.reshape_18", "trainable": true, "dtype": "float32", "function": "reshape"}, "name": "tf.reshape_18", "inbound_nodes": [[["global_average_pooling2d_18", 0, 0, {"shape": [-1, 1, 1, 256]}]]]}, {"class_name": "TFOpLambda", "config": {"name": "tf.math.reduce_max_11", "trainable": true, "dtype": "float32", "function": "math.reduce_max"}, "name": "tf.math.reduce_max_11", "inbound_nodes": [[["conv2d_194", 0, 0, {"axis": -1}]]]}, {"class_name": "TFOpLambda", "config": {"name": "tf.math.reduce_mean_11", "trainable": true, "dtype": "float32", "function": "math.reduce_mean"}, "name": "tf.math.reduce_mean_11", "inbound_nodes": [[["conv2d_194", 0, 0, {"axis": -1}]]]}, {"class_name": "Add", "config": {"name": "add_36", "trainable": true, "dtype": "float32"}, "name": "add_36", "inbound_nodes": [[["add_30", 0, 0, {}], ["add_33", 0, 0, {}], ["add_35", 0, 0, {}]]]}, {"class_name": "Conv2D", "config": {"name": "conv2d_195", "trainable": true, "dtype": "float32", "filters": 32, "kernel_size": [1, 1], "strides": [1, 1], "padding": "valid", "data_format": "channels_last", "dilation_rate": [1, 1], "groups": 1, "activation": "linear", "use_bias": true, "kernel_initializer": {"class_name": "GlorotUniform", "config": {"seed": null}}, "bias_initializer": {"class_name":…
}, {"name": "conv2d_526/bias", "shape": [8], "dtype": "float32", "quantization": {"dtype": "uint8", "min": -0.006768939308091706, "scale": 3.8459882432339235e-05, "original_dtype": "float32"}}, {"name": "conv2d_527/kernel", "shape": [1, 1, 8, 64], "dtype": "float32", "quantization": {"dtype": "uint8", "min": -0.29007049261354934, "scale": 0.002266175723543354, "original_dtype": "float32"}}, {"name": "conv2d_527/bias", "shape": [64], "dtype": "float32", "quantization": {"dtype": "uint8", "min": -0.006625435687601567, "scale": 5.057584494352341e-05, "original_dtype": "float32"}}, {"name": "conv2d_528/kernel", "shape": [1, 1, 8, 64], "dtype": "float32", "quantization": {"dtype": "uint8", "min": -0.28852163576612283, "scale": 0.0022540752794228346, "original_dtype": "float32"}}, {"name": "conv2d_528/bias", "shape": [64], "dtype": "float32", "quantization": {"dtype": "uint8", "min": -0.00666773349923246, "scale": 5.089872900177451e-05, "original_dtype": "float32"}}, {"name": "conv2d_529/kernel", "shape": [1, 1, 8, 64], "dtype": "float32", "quantization": {"dtype": "uint8", "min": -0.2920932844573376, "scale": 0.00228197878482295, "original_dtype": "float32"}}, {"name": "conv2d_529/bias", "shape": [64], "dtype": "float32", "quantization": {"dtype": "uint8", "min": -0.005912522593622699, "scale": 4.730018074898159e-05, "original_dtype": "float32"}}, {"name": "conv2d_530/kernel", "shape": [3, 3, 64, 64], "dtype": "float32", "quantization": {"dtype": "uint8", "min": -0.07929295739706825, "scale": 0.000634343659176546, "original_dtype": "float32"}}, {"name": "conv2d_530/bias", "shape": [64], "dtype": "float32", "quantization": {"dtype": "uint8", "min": -0.00768922626533929, "scale": 5.9606405157668914e-05, "original_dtype": "float32"}}, {"name": "conv2d_531/kernel", "shape": [1, 1, 64, 64], "dtype": "float32", "quantization": {"dtype": "uint8", "min": -0.2257798185535506, "scale": 0.001777793846878351, "original_dtype": "float32"}}, {"name": "conv2d_531/bias", "shape": [64], "dtype": "float32", "quantization": {"dtype": "uint8", "min": -0.013993720896542073, "scale": 9.146222808197433e-05, "original_dtype": "float32"}}, {"name": "conv2d_532/kernel", "shape": [3, 3, 64, 64], "dtype": "float32", "quantization": {"dtype": "uint8", "min": -0.08983080352053924, "scale": 0.0006963628179886762, "original_dtype": "float32"}}, {"name": "conv2d_532/bias", "shape": [64], "dtype": "float32", "quantization": {"dtype": "uint8", "min": -0.010609198142500484, "scale": 7.577998673214632e-05, "original_dtype": "float32"}}, {"name": "conv2d_533/kernel", "shape": [1, 1, 64, 128], "dtype": "float32", "quantization": {"dtype": "uint8", "min": -0.18831787109375, "scale": 0.001471233367919922, "original_dtype": "float32"}}, {"name": "conv2d_533/bias", "shape": [128], "dtype": "float32", "quantization": {"dtype": "uint8", "min": -0.009964414160041249, "scale": 7.548798606091855e-05, "original_dtype": "float32"}}, {"name": "conv2d_534/kernel", "shape": [1, 1, 64, 128], "dtype": "float32", "quantization": {"dtype": "uint8", "min": -0.18134406208992004, "scale": 0.0014392385880152385, "original_dtype": "float32"}}, {"name": "conv2d_534/bias", "shape": [128], "dtype": "float32", "quantization": {"dtype": "uint8", "min": -0.009964414160041249, "scale": 7.548798606091855e-05, "original_dtype": "float32"}}, {"name": "conv2d_535/kernel", "shape": [1, 1, 128, 128], "dtype": "float32", "quantization": {"dtype": "uint8", "min": -0.1667009090676027, "scale": 0.0013230230878381168, "original_dtype": "float32"}}, {"name": "conv2d_535/bias", "shape": [128], "dtype": "float32", "quantization": {"dtype": "uint8", "min": -0.012067100405693055, "scale": 8.87286794536254e-05, "original_dtype": "float32"}}, {"name": "conv2d_536/kernel", "shape": [3, 3, 128, 128], "dtype": "float32", "quantization": {"dtype": "uint8", "min": -0.06464625351569232, "scale": 0.0005130655040927962, "original_dtype": "float32"}}, {"name": "conv2d_536/bias", "shape": [128], "dtype": "float32", "quantization": {"dtype": "uint8", "min": -0.012630578305791406, "scale": 7.994036902399624e-05, "original_dtype": "float32"}}, {"name": "conv2d_537/kernel", "shape": [1, 1, 128, 256], "dtype": "float32", "quantization": {"dtype": "uint8", "min": -0.1356329974006204, "scale": 0.001059632792192347, "original_dtype": "float32"}}, {"name": "conv2d_537/bias", "shape": [256], "dtype": "float32", "quantization": {"dtype": "uint8", "min": -0.01082899954681303, "scale": 8.266411867796206e-05, "original_dtype": "float32"}}, {"name": "conv2d_538/kernel", "shape": [1, 1, 128, 256], "dtype": "float32", "quantization": {"dtype": "uint8", "min": -0.13434899455192043, "scale": 0.001057866098834019, "original_dtype": "float32"}}, {"name": "conv2d_538/bias", "shape": [256], "dtype": "float32", "quantization": {"dtype": "uint8", "min": -0.01082899954681303, "scale": 8.266411867796206e-05, "original_dtype": "float32"}}, {"name": "conv2d_539/kernel", "shape": [3, 3, 64, 64], "dtype": "float32", "quantization": {"dtype": "uint8", "min": -0.09384033288441453, "scale": 0.0007507226630753162, "original_dtype": "float32"}}, {"name": "conv2d_539/bias", "shape": [64], "dtype": "float32", "quantization": {"dtype": "uint8", "min": -0.010775818120615155, "scale": 9.886071670289133e-05, "original_dtype": "float32"}}, {"name": "conv2d_540/kernel", "shape": [3, 3, 64, 64], "dtype": "float32", "quantization": {"dtype": "uint8", "min": -0.09257985885236777, "scale": 0.000712152760402829, "original_dtype": "float32"}}, {"name": "conv2d_540/bias", "shape": [64], "dtype": "float32", "quantization": {"dtype": "uint8", "min": -0.01852820682175019, "scale": 0.00013724597645740883, "original_dtype": "float32"}}, {"name": "conv2d_541/kernel", "shape": [1, 1, 64, 8], "dtype": "float32", "quantization": {"dtype": "uint8", "min": -0.2869291898082284, "scale": 0.002259284959119909, "original_dtype": "float32"}}, {"name": "conv2d_541/bias", "shape": [8], "dtype": "float32", "quantization": {"dtype": "uint8", "min": -0.009862647227504674, "scale": 7.827497799606884e-05, "original_dtype": "float32"}}, {"name": "conv2d_542/kernel", "shape": [1, 1, 8, 64], "dtype": "float32", "quantization": {"dtype": "uint8", "min": -0.2873421737960741, "scale": 0.00226253680154389, "original_dtype": "float32"}}, {"name": "conv2d_542/bias", "shape": [64], "dtype": "float32", "quantization": {"dtype": "uint8", "min": -0.010390374371234109, "scale": 9.36069763174244e-05, "original_dtype": "float32"}}, {"name": "conv2d_543/kernel", "shape": [1, 1, 2, 1], "dtype": "float32", "quantization": {"dtype": "uint8", "min": 0.06741656363010406, "scale": 0.0007569367394727819, "original_dtype": "float32"}}, {"name": "conv2d_543/bias", "shape": [1], "dtype": "float32", "quantization": {"dtype": "uint8", "min": 0.00763713801279664, "scale": 1.0, "original_dtype": "float32"}}, {"name": "conv2d_544/kernel", "shape": [1, 1, 128, 64], "dtype": "float32", "quantization": {"dtype": "uint8", "min": -0.18842751085758208, "scale": 0.0014606783787409464, "original_dtype": "float32"}}, {"name": "conv2d_544/bias", "shape": [64], "dtype": "float32", "quantization": {"dtype": "uint8", "min": -0.009462744253231029, "scale": 8.602494775664572e-05, "original_dtype": "float32"}}, {"name": "conv2d_545/kernel", "shape": [3, 3, 128, 128], "dtype": "float32", "quantization": {"dtype": "uint8", "min": -0.06797741651535034, "scale": 0.0005269567171732585, "original_dtype": "float32"}}, {"name": "conv2d_545/bias", "shape": [128], "dtype": "float32", "quantization": {"dtype": "uint8", "min": -0.01136197102639605, "scale": 9.237374818208171e-05, "original_dtype": "float32"}}, {"name": "conv2d_546/kernel", "shape": [3, 3, 128, 128], "dtype": "float32", "quantization": {"dtype": "uint8", "min": -0.06260929429063611, "scale": 0.0004929865692176071, "original_dtype": "float32"}}, {"name": "conv2d_546/bias", "shape": [128], "dtype": "float32", "quantization": {"dtype": "uint8", "min": -0.02090831368285067, "scale": 0.0001357682706678615, "original_dtype": "float32"}}, {"name": "conv2d_547/kernel", "shape": [1, 1, 128, 16], "dtype": "float32", "quantization": {"dtype": "uint8", "min": -0.20647296554902023, "scale": 0.0016257713822757497, "original_dtype": "float32"}}, {"name": "conv2d_547/bias", "shape": [16], "dtype": "float32", "quantization": {"dtype": "uint8", "min": -0.005515830074528268, "scale": 3.8572238283414467e-05, "original_dtype": "float32"}}, {"name": "conv2d_548/kernel", "shape": [1, 1, 16, 128], "dtype": "float32", "quantization": {"dtype": "uint8", "min": -0.20517640896871978, "scale": 0.0016155622753442503, "original_dtype": "float32"}}, {"name": "conv2d_548/bias", "shape": [128], "dtype": "float32", "quantization": {"dtype": "uint8", "min": -0.00866015202311032, "scale": 5.312976701294675e-05, "original_dtype": "float32"}}, {"name": "conv2d_549/kernel", "shape": [1, 1, 2, 1], "dtype": "float32", "quantization": {"dtype": "uint8", "min": -0.5688698291778564, "scale": 0.0011731174646639356, "original_dtype": "float32"}}, {"name": "conv2d_549/bias", "shape": [1], "dtype": "float32", "quantization": {"dtype": "uint8", "min": 0.0013002636842429638, "scale": 1.0, "original_dtype": "float32"}}, {"name": "conv2d_550/kernel", "shape": [1, 1, 256, 128], "dtype": "float32", "quantization": {"dtype": "uint8", "min": -0.1315129669273601, "scale": 0.001043753705772699, "original_dtype": "float32"}}, {"name": "conv2d_550/bias", "shape": [128], "dtype": "float32", "quantization": {"dtype": "uint8", "min": -0.012059465631404342, "scale": 8.433192749233806e-05, "original_dtype": "float32"}}, {"name": "conv2d_551/kernel", "shape": [3, 3, 256, 256], "dtype": "float32", "quantization": {"dtype": "uint8", "min": -0.05650644708497851, "scale": 0.00042168990361924263, "original_dtype": "float32"}}, {"name": "conv2d_551/bias", "shape": [256], "dtype": "float32", "quantization": {"dtype": "uint8", "min": -0.012120891114075978, "scale": 0.00010271941622098287, "original_dtype": "float32"}}, {"name": "conv2d_552/kernel", "shape": [3, 3, 256, 256], "dtype": "float32", "quantization": {"dtype": "uint8", "min": -0.04875837026857862, "scale": 0.00038092476772327047, "original_dtype": "float32"}}, {"name": "conv2d_552/bias", "shape": [256], "dtype": "float32", "quantization": {"dtype": "uint8", "min": -0.012071386107480993, "scale": 0.00010496857484766081, "original_dtype": "float32"}}, {"name": "conv2d_553/kernel", "shape": [1, 1, 256, 32], "dtype": "float32", "quantization": {"dtype": "uint8", "min": -0.14747820882236257, "scale": 0.0011612457387587603, "original_dtype": "float32"}}, {"name": "conv2d_553/bias", "shape": [32], "dtype": "float32", "quantization": {"dtype": "uint8", "min": -0.00852071191458141, "scale": 6.455084783773796e-05, "original_dtype": "float32"}}, {"name": "conv2d_554/kernel", "shape": [1, 1, 32, 256], "dtype": "float32", "quantization": {"dtype": "uint8", "min": -0.14895404349355137, "scale": 0.0011546825077019486, "original_dtype": "float32"}}, {"name": "conv2d_554/bias", "shape": [256], "dtype": "float32", "quantization": {"dtype": "uint8", "min": -0.010577592982307952, "scale": 5.3422186779333093e-05, "original_dtype": "float32"}}, {"name": "conv2d_555/kernel", "shape": [1, 1, 2, 1], "dtype": "float32", "quantization": {"dtype": "uint8", "min": -0.1379840763176189, "scale": 0.003285335150419497, "original_dtype": "float32"}}, {"name": "conv2d_555/bias", "shape": [1], "dtype": "float32", "quantization": {"dtype": "uint8", "min": -0.002295028418302536, "scale": 1.0, "original_dtype": "float32"}}, {"name": "conv2d_556/kernel", "shape": [1, 1, 512, 256], "dtype": "float32", "quantization": {"dtype": "uint8", "min": -0.09647623697916667, "scale": 0.0007537206013997396, "original_dtype": "float32"}}, {"name": "conv2d_556/bias", "shape": [256], "dtype": "float32", "quantization": {"dtype": "uint8", "min": -0.015539028130325616, "scale": 0.000138741322592193, "original_dtype": "float32"}}, {"name": "conv2d_557/kernel", "shape": [1, 1, 128, 128], "dtype": "float32", "quantization": {"dtype": "uint8", "min": -0.1661151885986328, "scale": 0.0012977749109268188, "original_dtype": "float32"}}, {"name": "conv2d_557/bias", "shape": [128], "dtype": "float32", "quantization": {"dtype": "uint8", "min": -0.016809785702064924, "scale": 0.00014617204958317326, "original_dtype": "float32"}}, {"name": "conv2d_558/kernel", "shape": [3, 3, 128, 128], "dtype": "float32", "quantization": {"dtype": "uint8", "min": -0.06182118299252846, "scale": 0.0005026112438416948, "original_dtype": "float32"}}, {"name": "conv2d_558/bias", "shape": [128], "dtype": "float32", "quantization": {"dtype": "uint8", "min": -0.010547591921161201, "scale": 0.00010547591921161202, "original_dtype": "float32"}}, {"name": "conv2d_559/kernel", "shape": [1, 1, 128, 64], "dtype": "float32", "quantization": {"dtype": "uint8", "min": -0.18570993156994092, "scale": 0.0014738883457931819, "original_dtype": "float32"}}, {"name": "conv2d_559/bias", "shape": [64], "dtype": "float32", "quantization": {"dtype": "uint8", "min": -0.011987945700393004, "scale": 9.746297317392686e-05, "original_dtype": "float32"}}, {"name": "conv2d_56/kernel", "shape": [1, 1, 64, 64], "dtype": "float32", "quantization": {"dtype": "uint8", "min": -0.2203547384224686, "scale": 0.001721521393925536, "original_dtype": "float32"}}, {"name": "conv2d_56/bias", "shape": [64], "dtype": "float32", "quantization": {"dtype": "uint8", "min": -0.017939842170944402, "scale": 0.00012633691669679156, "original_dtype": "float32"}}, {"name": "conv2d_560/kernel", "shape": [1, 1, 128, 64], "dtype": "float32", "quantization": {"dtype": "uint8", "min": -0.187664323460822, "scale": 0.001477671838274189, "original_dtype": "float32"}}, {"name": "conv2d_560/bias", "shape": [64], "dtype": "float32", "quantization": {"dtype": "uint8", "min": -0.011987945700393004, "scale": 9.746297317392686e-05, "original_dtype": "float32"}}, {"name": "conv2d_561/kernel", "shape": [1, 1, 256, 256], "dtype": "float32", "quantization": {"dtype": "uint8", "min": -0.11981580090873382, "scale": 0.0009288046582072389, "original_dtype": "float32"}}, {"name": "conv2d_561/bias", "shape": [256], "dtype": "float32", "quantization": {"dtype": "uint8", "min": -0.015756409542233337, "scale": 0.0001560040548735974, "original_dtype": "float32"}}, {"name": "conv2d_562/kernel", "shape": [3, 3, 256, 256], "dtype": "float32", "quantization": {"dtype": "uint8", "min": -0.04738359331500297, "scale": 0.0003730991599606533, "original_dtype": "float32"}}, {"name": "conv2d_562/bias", "shape": [256], "dtype": "float32", "quantization": {"dtype": "uint8", "min": -0.015269498158173234, "scale": 0.00014270559026330126, "original_dtype": "float32"}}, {"name": "conv2d_563/kernel", "shape": [1, 1, 256, 128], "dtype": "float32", "quantization": {"dtype": "uint8", "min": -0.13386512211724824, "scale": 0.001070920976937986, "original_dtype": "float32"}}, {"name": "conv2d_563/bias", "shape": [128], "dtype": "float32", "quantization": {"dtype": "uint8", "min": -0.020494628821810086, "scale": 0.00017222377161184947, "original_dtype": "float32"}}, {"name": "conv2d_564/kernel", "shape": [1, 1, 256, 128], "dtype": "float32", "quantization": {"dtype": "uint8", "min": -0.13436632343367036, "scale": 0.0010580025467218138, "original_dtype": "float32"}}, {"name": "conv2d_564/bias", "shape": [128], "dtype": "float32", "quantization": {"dtype": "uint8", "min": -0.020494628821810086, "scale": 0.00017222377161184947, "original_dtype": "float32"}}, {"name": "conv2d_565/kernel", "shape": [1, 1, 128, 128], "dtype": "float32", "quantization": {"dtype": "uint8", "min": -0.16464317493578967, "scale": 0.0012964029522503123, "original_dtype": "float32"}}, {"name": "conv2d_565/bias", "shape": [128], "dtype": "float32", "quantization": {"dtype": "uint8", "min": -0.017545096846479997, "scale": 0.00016096419125211005, "original_dtype": "float32"}}, {"name": "conv2d_566/kernel", "shape": [3, 3, 128, 128], "dtype": "float32", "quantization": {"dtype": "uint8", "min": -0.0663164783926571, "scale": 0.0005305318271412568, "original_dtype": "float32"}}, {"name": "conv2d_566/bias", "shape": [128], "dtype": "float32", "quantization": {"dtype": "uint8", "min": -0.019406485572165136, "scale": 0.00016446174213699267, "original_dtype": "float32"}}, {"name": "conv2d_567/kernel", "shape": [1, 1, 128, 64], "dtype": "float32", "quantization": {"dtype": "uint8", "min": -0.1833627041648416, "scale": 0.0014552595568638222, "original_dtype": "float32"}}, {"name": "conv2d_567/bias", "shape": [64], "dtype": "float32", "quantization": {"dtype": "uint8", "min": -0.01133106298306409, "scale": 9.442552485886742e-05, "original_dtype": "float32"}}, {"name": "conv2d_568/kernel", "shape": [1, 1, 128, 64], "dtype": "float32", "quantization": {"dtype": "uint8", "min": -0.1906201680501302, "scale": 0.0014892200628916423, "original_dtype": "float32"}}, {"name": "conv2d_568/bias", "shape": [64], "dtype": "float32", "quantization": {"dtype": "uint8", "min": -0.01133106298306409, "scale": 9.442552485886742e-05, "original_dtype": "float32"}}, {"name": "conv2d_569/kernel", "shape": [1, 1, 64, 8], "dtype": "float32", "quantization": {"dtype": "uint8", "min": -0.28764854879940255, "scale": 0.0022472542874953324, "original_dtype": "float32"}}, {"name": "conv2d_569/bias", "shape": [8], "dtype": "float32", "quantization": {"dtype": "uint8", "min": -0.004893800462870037, "scale": 5.4375560698555965e-05, "original_dtype": "float32"}}, {"name": "conv2d_57/kernel", "shape": [3, 3, 64, 64], "dtype": "float32", "quantization": {"dtype": "uint8", "min": -0.07785501667097502, "scale": 0.0006082423177419924, "original_dtype": "float32"}}, {"name": "conv2d_57/bias", "shape": [64], "dtype": "float32", "quantization": {"dtype": "uint8", "min": -0.008371594519007439, "scale": 6.751285902425354e-05, "original_dtype": "float32"}}, {"name": "conv2d_570/kernel", "shape": [1, 1, 8, 64], "dtype": "float32", "quantization": {"dtype": "uint8", "min": -0.29631207690519445, "scale": 0.0022969928442263137, "original_dtype": "float32"}}, {"name": "conv2d_570/bias", "shape": [64], "dtype": "float32", "quantization": {"dtype": "uint8", "min": -0.02010293346555794, "scale": 0.00014257399620963077, "original_dtype": "float32"}}, {"name": "conv2d_571/kernel", "shape": [1, 1, 8, 64], "dtype": "float32", "quantization": {"dtype": "uint8", "min": -0.3065215641377019, "scale": 0.0023578581856746298, "original_dtype": "float32"}}, {"name": "conv2d_571/bias", "shape": [64], "dtype": "float32", "quantization": {"dtype": "uint8", "min": -0.016188832182510226, "scale": 0.00014717120165918388, "original_dtype": "float32"}}, {"name": "conv2d_572/kernel", "shape": [1, 1, 8, 64], "dtype": "float32", "quantization": {"dtype": "uint8", "min": -0.299845462920619, "scale": 0.0022888966635161755, "original_dtype": "float32"}}, {"name": "conv2d_572/bias", "shape": [64], "dtype": "float32", "quantization": {"dtype": "uint8", "min": -0.015136091557203553, "scale": 0.00013514367461788887, "original_dtype": "float32"}}, {"name": "conv2d_58/kernel", "shape": [1, 1, 64, 128], "dtype": "float32", "quantization": {"dtype": "uint8", "min": -0.18048710542566637, "scale": 0.0014100555111380185, "original_dtype": "float32"}}, {"name": "conv2d_58/bias", "shape": [128], "dtype": "float32", "quantization": {"dtype": "uint8", "min": -0.009837616490674954, "scale": 7.567397300519195e-05, "original_dtype": "float32"}}, {"name": "conv2d_585/kernel", "shape": [1, 1, 64, 64], "dtype": "float32", "quantization": {"dtype": "uint8", "min": -0.22240540350184723, "scale": 0.0017651222500146605, "original_dtype": "float32"}}, {"name": "conv2d_585/bias", "shape": [64], "dtype": "float32", "quantization": {"dtype": "uint8", "min": -0.011759962996139246, "scale": 0.0001306662555126583, "original_dtype": "float32"}}, {"name": "conv2d_586/kernel", "shape": [3, 3, 64, 64], "dtype": "float32", "quantization": {"dtype": "uint8", "min": -0.08177676516420701, "scale": 0.0006490219457476747, "original_dtype": "float32"}}, {"name": "conv2d_586/bias", "shape": [64], "dtype": "float32", "quantization": {"dtype": "uint8", "min": -0.0100196271258242, "scale": 7.156876518445856e-05, "original_dtype": "float32"}}, {"name": "conv2d_587/kernel", "shape": [1, 1, 64, 128], "dtype": "float32", "quantization": {"dtype": "uint8", "min": -0.1827385127544403, "scale": 0.0014388859272003174, "original_dtype": "float32"}}, {"name": "conv2d_587/bias", "shape": [128], "dtype": "float32", "quantization": {"dtype": "uint8", "min": -0.009560285537850623, "scale": 7.648228430280499e-05, "original_dtype": "float32"}}, {"name": "conv2d_588/kernel", "shape": [1, 1, 64, 128], "dtype": "float32", "quantization": {"dtype": "uint8", "min": -0.18244162856363783, "scale": 0.001436548256406597, "original_dtype": "float32"}}, {"name": "conv2d_588/bias", "shape": [128], "dtype": "float32", "quantization": {"dtype": "uint8", "min": -0.009560285537850623, "scale": 7.648228430280499e-05, "original_dtype": "float32"}}, {"name": "conv2d_589/kernel", "shape": [1, 1, 128, 128], "dtype": "float32", "quantization": {"dtype": "uint8", "min": -0.1599084717385909, "scale": 0.0012591218247133143, "original_dtype": "float32"}}, {"name": "conv2d_589/bias", "shape": [128], "dtype": "float32", "quantization": {"dtype": "uint8", "min": -0.013003843080471544, "scale": 9.423074695993872e-05, "original_dtype": "float32"}}, {"name": "conv2d_59/kernel", "shape": [1, 1, 64, 128], "dtype": "float32", "quantization": {"dtype": "uint8", "min": -0.18106465059168197, "scale": 0.0014145675827475154, "original_dtype": "float32"}}, {"name": "conv2d_59/bias", "shape": [128], "dtype": "float32", "quantization": {"dtype": "uint8", "min": -0.009837616490674954, "scale": 7.567397300519195e-05, "original_dtype": "float32"}}, {"name": "conv2d_590/kernel", "shape": [3, 3, 128, 128], "dtype": "float32", "quantization": {"dtype": "uint8", "min": -0.057463665978581296, "scale": 0.0004634166611175911, "original_dtype": "float32"}}, {"name": "conv2d_590/bias", "shape": [128], "dtype": "float32", "quantization": {"dtype": "uint8", "min": -0.008032157228273504, "scale": 8.730605682905983e-05, "original_dtype": "float32"}}, {"name": "conv2d_591/kernel", "shape": [1, 1, 128, 256], "dtype": "float32", "quantization": {"dtype": "uint8", "min": -0.13024532128782831, "scale": 0.0010336930260938756, "original_dtype": "float32"}}, {"name": "conv2d_591/bias", "shape": [256], "dtype": "float32", "quantization": {"dtype": "uint8", "min": -0.008634041706282718, "scale": 7.921139180075888e-05, "original_dtype": "float32"}}, {"name": "conv2d_592/kernel", "shape": [1, 1, 128, 256], "dtype": "float32", "quantization": {"dtype": "uint8", "min": -0.13506845726686365, "scale": 0.0010470423043942919, "original_dtype": "float32"}}, {"name": "conv2d_592/bias", "shape": [256], "dtype": "float32", "quantization": {"dtype": "uint8", "min": -0.008634041706282718, "scale": 7.921139180075888e-05, "original_dtype": "float32"}}, {"name": "conv2d_593/kernel", "shape": [1, 1, 128, 128], "dtype": "float32", "quantization": {"dtype": "uint8", "min": -0.1622704628635855, "scale": 0.0012579105648339963, "original_dtype": "float32"}}, {"name": "conv2d_593/bias", "shape": [128], "dtype": "float32", "quantization": {"dtype": "uint8", "min": -0.01120125242673299, "scale": 7.04481284700188e-05, "original_dtype": "float32"}}, {"name": "conv2d_594/kernel", "shape": [3, 3, 128, 128], "dtype": "float32", "quantization": {"dtype": "uint8", "min": -0.05804602118099437, "scale": 0.0004534845404765185, "original_dtype": "float32"}}, {"name": "conv2d_594/bias", "shape": [128], "dtype": "float32", "quantization": {"dtype": "uint8", "min": -0.00986850174034343, "scale": 7.310001289143282e-05, "original_dtype": "float32"}}, {"name": "conv2d_595/kernel", "shape": [1, 1, 128, 256], "dtype": "float32", "quantization": {"dtype": "uint8", "min": -0.13150172198519985, "scale": 0.0010354466298047233, "original_dtype": "float32"}}, {"name": "conv2d_595/bias", "shape": [256], "dtype": "float32", "quantization": {"dtype": "uint8", "min": -0.00819191392876354, "scale": 8.714802051876106e-05, "original_dtype": "float32"}}, {"name": "conv2d_596/kernel", "shape": [1, 1, 128, 256], "dtype": "float32", "quantization": {"dtype": "uint8", "min": -0.13240905035944547, "scale": 0.001042590947712169, "original_dtype": "float32"}}, {"name": "conv2d_596/bias", "shape": [256], "dtype": "float32", "quantization": {"dtype": "uint8", "min": -0.00819191392876354, "scale": 8.714802051876106e-05, "original_dtype": "float32"}}, {"name": "conv2d_597/kernel", "shape": [1, 1, 256, 32], "dtype": "float32", "quantization": {"dtype": "uint8", "min": -0.15271622141202293, "scale": 0.0012024899323781332, "original_dtype": "float32"}}, {"name": "conv2d_597/bias", "shape": [32], "dtype": "float32", "quantization": {"dtype": "uint8", "min": -0.010355121708091568, "scale": 0.0001045971889706219, "original_dtype": "float32"}}, {"name": "conv2d_598/kernel", "shape": [1, 1, 32, 256], "dtype": "float32", "quantization": {"dtype": "uint8", "min": -0.15061568465887332, "scale": 0.0012146426182167204, "original_dtype": "float32"}}, {"name": "conv2d_598/bias", "shape": [256], "dtype": "float32", "quantization": {"dtype": "uint8", "min": -0.013129144614818048, "scale": 9.054582492977965e-05, "original_dtype": "float32"}}, {"name": "conv2d_599/kernel", "shape": [1, 1, 32, 256], "dtype": "float32", "quantization": {"dtype": "uint8", "min": -0.15095372200012205, "scale": 0.0011980454126993814, "original_dtype": "float32"}}, {"name": "conv2d_599/bias", "shape": [256], "dtype": "float32", "quantization": {"dtype": "uint8", "min": -0.01238470592116024, "scale": 8.54117649735189e-05, "original_dtype": "float32"}}, {"name": "conv2d_6/kernel", "shape": [1, 1, 128, 128], "dtype": "float32", "quantization": {"dtype": "uint8", "min": -0.16811634109300727, "scale": 0.0013032274503333896, "original_dtype": "float32"}}, {"name": "conv2d_6/bias", "shape": [128], "dtype": "float32", "quantization": {"dtype": "uint8", "min": -0.02396647411526418, "scale": 0.0001443763500919529, "original_dtype": "float32"}}, {"name": "conv2d_60/kernel", "shape": [1, 1, 128, 128], "dtype": "float32", "quantization": {"dtype": "uint8", "min": -0.15687044929055607, "scale": 0.0012255503850824693, "original_dtype": "float32"}}, {"name": "conv2d_60/bias", "shape": [128], "dtype": "float32", "quantization": {"dtype": "uint8", "min": -0.015438494130092508, "scale": 0.00011106830309419071, "original_dtype": "float32"}}, {"name": "conv2d_600/kernel", "shape": [1, 1, 32, 256], "dtype": "float32", "quantization": {"dtype": "uint8", "min": -0.14894118945972593, "scale": 0.0011727652713364246, "original_dtype": "float32"}}, {"name": "conv2d_600/bias", "shape": [256], "dtype": "float32", "quantization": {"dtype": "uint8", "min": -0.008792544265880305, "scale": 6.325571414302377e-05, "original_dtype": "float32"}}, {"name": "conv2d_601/kernel", "shape": [3, 3, 64, 64], "dtype": "float32", "quantization": {"dtype": "uint8", "min": -0.09416416892234017, "scale": 0.0007299547978475982, "original_dtype": "float32"}}, {"name": "conv2d_601/bias", "shape": [64], "dtype": "float32", "quantization": {"dtype": "uint8", "min": -0.00930267944931984, "scale": 0.00010944328763905693, "original_dtype": "float32"}}, {"name": "conv2d_602/kernel", "shape": [3, 3, 64, 64], "dtype": "float32", "quantization": {"dtype": "uint8", "min": -0.08770645085503073, "scale": 0.0007073100875405704, "original_dtype": "float32"}}, {"name": "conv2d_602/bias", "shape": [64], "dtype": "float32", "quantization": {"dtype": "uint8", "min": -0.006965895128600737, "scale": 5.8049126071672815e-05, "original_dtype": "float32"}}, {"name": "conv2d_603/kernel", "shape": [1, 1, 64, 8], "dtype": "float32", "quantization": {"dtype": "uint8", "min": -0.2970291646087871, "scale": 0.002267398203120512, "original_dtype": "float32"}}, {"name": "conv2d_603/bias", "shape": [8], "dtype": "float32", "quantization": {"dtype": "uint8", "min": -0.011636305863366407, "scale": 5.3871786404474106e-05, "original_dtype": "float32"}}, {"name": "conv2d_604/kernel", "shape": [1, 1, 8, 64], "dtype": "float32", "quantization": {"dtype": "uint8", "min": -0.29322456682429593, "scale": 0.0022730586575526817, "original_dtype": "float32"}}, {"name": "conv2d_604/bias", "shape": [64], "dtype": "float32", "quantization": {"dtype": "uint8", "min": -0.009905394763850113, "scale": 5.596268228163906e-05, "original_dtype": "float32"}}, {"name": "conv2d_605/kernel", "shape": [1, 1, 2, 1], "dtype": "float32", "quantization": {"dtype": "uint8", "min": -0.34556132555007935, "scale": 5.263195318334243e-05, "original_dtype": "float32"}}, {"name": "conv2d_605/bias", "shape": [1], "dtype": "float32", "quantization": {"dtype": "uint8", "min": 0.004843353759497404, "scale": 1.0, "original_dtype": "float32"}}, {"name": "conv2d_606/kernel", "shape": [1, 1, 128, 64], "dtype": "float32", "quantization": {"dtype": "uint8", "min": -0.18472518920898437, "scale": 0.0014431655406951904, "original_dtype": "float32"}}, {"name": "conv2d_606/bias", "shape": [64], "dtype": "float32", "quantization": {"dtype": "uint8", "min": -0.007126290526460199, "scale": 5.3987049442880295e-05, "original_dtype": "float32"}}, {"name": "conv2d_61/kernel", "shape": [3, 3, 128, 128], "dtype": "float32", "quantization": {"dtype": "uint8", "min": -0.05764358008609098, "scale": 0.00045748873084199194, "original_dtype": "float32"}}, {"name": "conv2d_61/bias", "shape": [128], "dtype": "float32", "quantization": {"dtype": "uint8", "min": -0.01847021511080218, "scale": 0.0001176446822344088, "original_dtype": "float32"}}, {"name": "conv2d_617/kernel", "shape": [3, 3, 256, 256], "dtype": "float32", "quantization": {"dtype": "uint8", "min": -0.04680038152956495, "scale": 0.00036562798069972617, "original_dtype": "float32"}}, {"name": "conv2d_617/bias", "shape": [256], "dtype": "float32", "quantization": {"dtype": "uint8", "min": -0.007870723602964596, "scale": 4.142486106823472e-05, "original_dtype": "float32"}}, {"name": "conv2d_618/kernel", "shape": [3, 3, 256, 256], "dtype": "float32", "quantization": {"dtype": "uint8", "min": -0.04113699156864017, "scale": 0.00032391331943811154, "original_dtype": "float32"}}, {"name": "conv2d_618/bias", "shape": [256], "dtype": "float32", "quantization": {"dtype": "uint8", "min": -0.0046252365205802165, "scale": 3.73002945208082e-05, "original_dtype": "float32"}}, {"name": "conv2d_619/kernel", "shape": [1, 1, 256, 32], "dtype": "float32", "quantization": {"dtype": "uint8", "min": -0.14391010672438379, "scale": 0.0011331504466486912, "original_dtype": "float32"}}, {"name": "conv2d_619/bias", "shape": [32], "dtype": "float32", "quantization": {"dtype": "uint8", "min": -0.005562903660842601, "scale": 4.837307531167479e-05, "original_dtype": "float32"}}, {"name": "conv2d_62/kernel", "shape": [1, 1, 128, 256], "dtype": "float32", "quantization": {"dtype": "uint8", "min": -0.12804869553622078, "scale": 0.0010082574451670927, "original_dtype": "float32"}}, {"name": "conv2d_62/bias", "shape": [256], "dtype": "float32", "quantization": {"dtype": "uint8", "min": -0.006364622463782628, "scale": 4.6798694586636974e-05, "original_dtype": "float32"}}, {"name": "conv2d_620/kernel", "shape": [1, 1, 32, 256], "dtype": "float32", "quantization": {"dtype": "uint8", "min": -0.1450903948615579, "scale": 0.001133518709855921, "original_dtype": "float32"}}, {"name": "conv2d_620/bias", "shape": [256], "dtype": "float32", "quantization": {"dtype": "uint8", "min": -0.007243019439663519, "scale": 3.149138886810226e-05, "original_dtype": "float32"}}, {"name": "conv2d_621/kernel", "shape": [1, 1, 2, 1], "dtype": "float32", "quantization": {"dtype": "uint8", "min": 0.08551670610904694, "scale": 0.004091690042439629, "original_dtype": "float32"}}, {"name": "conv2d_621/bias", "shape": [1], "dtype": "float32", "quantization": {"dtype": "uint8", "min": -0.0023590971250087023, "scale": 1.0, "original_dtype": "float32"}}, {"name": "conv2d_622/kernel", "shape": [1, 1, 512, 256], "dtype": "float32", "quantization": {"dtype": "uint8", "min": -0.092726156057096, "scale": 0.0007301272130479999, "original_dtype": "float32"}}, {"name": "conv2d_622/bias", "shape": [256], "dtype": "float32", "quantization": {"dtype": "uint8", "min": -0.008934534373967087, "scale": 6.61817361034599e-05, "original_dtype": "float32"}}, {"name": "conv2d_623/kernel", "shape": [1, 1, 256, 256], "dtype": "float32", "quantization": {"dtype": "uint8", "min": -0.11326950084345014, "scale": 0.0008918858334129932, "original_dtype": "float32"}}, {"name": "conv2d_623/bias", "shape": [256], "dtype": "float32", "quantization": {"dtype": "uint8", "min": -0.009110542363030653, "scale": 4.720488271000338e-05, "original_dtype": "float32"}}, {"name": "conv2d_624/kernel", "shape": [3, 3, 256, 256], "dtype": "float32", "quantization": {"dtype": "uint8", "min": -0.04910751581192017, "scale": 0.0003610846750876483, "original_dtype": "float32"}}, {"name": "conv2d_624/bias", "shape": [256], "dtype": "float32", "quantization": {"dtype": "uint8", "min": -0.005008854382835767, "scale": 5.3858649277803944e-05, "original_dtype": "float32"}}, {"name": "conv2d_625/kernel", "shape": [1, 1, 256, 128], "dtype": "float32", "quantization": {"dtype": "uint8", "min": -0.13711541785913356, "scale": 0.0010882176020566155, "original_dtype": "float32"}}, {"name": "conv2d_625/bias", "shape": [128], "dtype": "float32", "quantization": {"dtype": "uint8", "min": -0.007354600594251179, "scale": 5.614198926909297e-05, "original_dtype": "float32"}}, {"name": "conv2d_626/kernel", "shape": [1, 1, 256, 128], "dtype": "float32", "quantization": {"dtype": "uint8", "min": -0.13204742132448682, "scale": 0.0010316204790975533, "original_dtype": "float32"}}, {"name": "conv2d_626/bias", "shape": [128], "dtype": "float32", "quantization": {"dtype": "uint8", "min": -0.007354600594251179, "scale": 5.614198926909297e-05, "original_dtype": "float32"}}, {"name": "conv2d_627/kernel", "shape": [1, 1, 128, 128], "dtype": "float32", "quantization": {"dtype": "uint8", "min": -0.15789855893920451, "scale": 0.0012432957396787756, "original_dtype": "float32"}}, {"name": "conv2d_627/bias", "shape": [128], "dtype": "float32", "quantization": {"dtype": "uint8", "min": -0.00970702396486612, "scale": 5.484194330432836e-05, "original_dtype": "float32"}}, {"name": "conv2d_628/kernel", "shape": [3, 3, 128, 128], "dtype": "float32", "quantization": {"dtype": "uint8", "min": -0.06065342721401477, "scale": 0.0004852274177121181, "original_dtype": "float32"}}, {"name": "conv2d_628/bias", "shape": [128], "dtype": "float32", "quantization": {"dtype": "uint8", "min": -0.0053049428498043736, "scale": 5.643556223196142e-05, "original_dtype": "float32"}}, {"name": "conv2d_629/kernel", "shape": [1, 1, 128, 64], "dtype": "float32", "quantization": {"dtype": "uint8", "min": -0.1876999350155101, "scale": 0.0014664057423086727, "original_dtype": "float32"}}, {"name": "conv2d_629/bias", "shape": [64], "dtype": "float32", "quantization": {"dtype": "uint8", "min": -0.006960885182899588, "scale": 5.273397865833021e-05, "original_dtype": "float32"}}, {"name": "conv2d_63/kernel", "shape": [1, 1, 128, 256], "dtype": "float32", "quantization": {"dtype": "uint8", "min": -0.12949168635349648, "scale": 0.0010116537996366912, "original_dtype": "float32"}}, {"name": "conv2d_63/bias", "shape": [256], "dtype": "float32", "quantization": {"dtype": "uint8", "min": -0.006364622463782628, "scale": 4.6798694586636974e-05, "original_dtype": "float32"}}, {"name": "conv2d_630/kernel", "shape": [1, 1, 128, 64], "dtype": "float32", "quantization": {"dtype": "uint8", "min": -0.1810212539691551, "scale": 0.0014253642044815362, "original_dtype": "float32"}}, {"name": "conv2d_630/bias", "shape": [64], "dtype": "float32", "quantization": {"dtype": "uint8", "min": -0.006960885182899588, "scale": 5.273397865833021e-05, "original_dtype": "float32"}}, {"name": "conv2d_631/kernel", "shape": [1, 1, 64, 8], "dtype": "float32", "quantization": {"dtype": "uint8", "min": -0.2891435660567938, "scale": 0.0022589341098187016, "original_dtype": "float32"}}, {"name": "conv2d_631/bias", "shape": [8], "dtype": "float32", "quantization": {"dtype": "uint8", "min": -0.006959458937247595, "scale": 6.384824713071188e-05, "original_dtype": "float32"}}, {"name": "conv2d_632/kernel", "shape": [1, 1, 8, 64], "dtype": "float32", "quantization": {"dtype": "uint8", "min": -0.28413191496157175, "scale": 0.002237259172925762, "original_dtype": "float32"}}, {"name": "conv2d_632/bias", "shape": [64], "dtype": "float32", "quantization": {"dtype": "uint8", "min": -0.0074214270338416105, "scale": 6.935913115739823e-05, "original_dtype": "float32"}}, {"name": "conv2d_633/kernel", "shape": [1, 1, 8, 64], "dtype": "float32", "quantization": {"dtype": "uint8", "min": -0.29331460443197516, "scale": 0.002309563814425001, "original_dtype": "float32"}}, {"name": "conv2d_633/bias", "shape": [64], "dtype": "float32", "quantization": {"dtype": "uint8", "min": -0.012502653834720451, "scale": 8.066228280464808e-05, "original_dtype": "float32"}}, {"name": "conv2d_634/kernel", "shape": [1, 1, 8, 64], "dtype": "float32", "quantization": {"dtype": "uint8", "min": -0.29313858630610445, "scale": 0.002290145205516441, "original_dtype": "float32"}}, {"name": "conv2d_634/bias", "shape": [64], "dtype": "float32", "quantization": {"dtype": "uint8", "min": -0.012418290008516873, "scale": 8.390736492241131e-05, "original_dtype": "float32"}}, {"name": "conv2d_635/kernel", "shape": [3, 3, 64, 64], "dtype": "float32", "quantization": {"dtype": "uint8", "min": -0.08220814349604588, "scale": 0.0006422511210628585, "original_dtype": "float32"}}, {"name": "conv2d_635/bias", "shape": [64], "dtype": "float32", "quantization": {"dtype": "uint8", "min": -0.007652407101191142, "scale": 6.121925680952914e-05, "original_dtype": "float32"}}, {"name": "conv2d_636/kernel", "shape": [3, 3, 64, 64], "dtype": "float32", "quantization": {"dtype": "uint8", "min": -0.09914137452256447, "scale": 0.0007454238685907103, "original_dtype": "float32"}}, {"name": "conv2d_636/bias", "shape": [64], "dtype": "float32", "quantization": {"dtype": "uint8", "min": -0.014185341732466921, "scale": 0.00010665670475539039, "original_dtype": "float32"}}, {"name": "conv2d_637/kernel", "shape": [3, 3, 64, 3], "dtype": "float32", "quantization": {"dtype": "uint8", "min": -0.1007120958145927, "scale": 0.0007993023477348627, "original_dtype": "float32"}}, {"name": "conv2d_637/bias", "shape": [3], "dtype": "float32", "quantization": {"dtype": "uint8", "min": 0.009084874764084816, "scale": 4.609392992421692e-06, "original_dtype": "float32"}}, {"name": "conv2d_64/kernel", "shape": [1, 1, 128, 128], "dtype": "float32", "quantization": {"dtype": "uint8", "min": -0.15707335962968716, "scale": 0.0012466139653149774, "original_dtype": "float32"}}, {"name": "conv2d_64/bias", "shape": [128], "dtype": "float32", "quantization": {"dtype": "uint8", "min": -0.015550105682775086, "scale": 0.00010230332686036241, "original_dtype": "float32"}}, {"name": "conv2d_65/kernel", "shape": [3, 3, 128, 128], "dtype": "float32", "quantization": {"dtype": "uint8", "min": -0.057171995674862586, "scale": 0.0004648129729663625, "original_dtype": "float32"}}, {"name": "conv2d_65/bias", "shape": [128], "dtype": "float32", "quantization": {"dtype": "uint8", "min": -0.01247584641564126, "scale": 8.20779369450083e-05, "original_dtype": "float32"}}, {"name": "conv2d_66/kernel", "shape": [1, 1, 128, 256], "dtype": "float32", "quantization": {"dtype": "uint8", "min": -0.1325800237118029, "scale": 0.0010439371945811253, "original_dtype": "float32"}}, {"name": "conv2d_66/bias", "shape": [256], "dtype": "float32", "quantization": {"dtype": "uint8", "min": -0.005863091619867904, "scale": 5.0543893274723315e-05, "original_dtype": "float32"}}, {"name": "conv2d_67/kernel", "shape": [1, 1, 128, 256], "dtype": "float32", "quantization": {"dtype": "uint8", "min": -0.13251482645670573, "scale": 0.0010352720816930135, "original_dtype": "float32"}}, {"name": "conv2d_67/bias", "shape": [256], "dtype": "float32", "quantization": {"dtype": "uint8", "min": -0.005863091619867904, "scale": 5.0543893274723315e-05, "original_dtype": "float32"}}, {"name": "conv2d_68/kernel", "shape": [1, 1, 256, 32], "dtype": "float32", "quantization": {"dtype": "uint8", "min": -0.15010314642214306, "scale": 0.0011726808314229927, "original_dtype": "float32"}}, {"name": "conv2d_68/bias", "shape": [32], "dtype": "float32", "quantization": {"dtype": "uint8", "min": -0.006614023158509358, "scale": 6.239644489159771e-05, "original_dtype": "float32"}}, {"name": "conv2d_69/kernel", "shape": [1, 1, 32, 256], "dtype": "float32", "quantization": {"dtype": "uint8", "min": -0.1468188348938437, "scale": 0.001165228848363839, "original_dtype": "float32"}}, {"name": "conv2d_69/bias", "shape": [256], "dtype": "float32", "quantization": {"dtype": "uint8", "min": -0.005107715227367246, "scale": 3.9594691685017416e-05, "original_dtype": "float32"}}, {"name": "conv2d_7/kernel", "shape": [3, 3, 128, 128], "dtype": "float32", "quantization": {"dtype": "uint8", "min": -0.0678207495341114, "scale": 0.0005340216498748929, "original_dtype": "float32"}}, {"name": "conv2d_7/bias", "shape": [128], "dtype": "float32", "quantization": {"dtype": "uint8", "min": -0.014134052874264762, "scale": 9.48594152635219e-05, "original_dtype": "float32"}}, {"name": "conv2d_70/kernel", "shape": [1, 1, 32, 256], "dtype": "float32", "quantization": {"dtype": "uint8", "min": -0.15069488824582566, "scale": 0.001177303814420513, "original_dtype": "float32"}}, {"name": "conv2d_70/bias", "shape": [256], "dtype": "float32", "quantization": {"dtype": "uint8", "min": -0.008721483246806789, "scale": 5.6633008096147984e-05, "original_dtype": "float32"}}, {"name": "conv2d_71/kernel", "shape": [1, 1, 32, 256], "dtype": "float32", "quantization": {"dtype": "uint8", "min": -0.14831815122389327, "scale": 0.0011678594584558525, "original_dtype": "float32"}}, {"name": "conv2d_71/bias", "shape": [256], "dtype": "float32", "quantization": {"dtype": "uint8", "min": -0.009657630923331953, "scale": 6.525426299548617e-05, "original_dtype": "float32"}}, {"name": "conv2d_72/kernel", "shape": [3, 3, 64, 64], "dtype": "float32", "quantization": {"dtype": "uint8", "min": -0.09005657872732947, "scale": 0.0007147347518042022, "original_dtype": "float32"}}, {"name": "conv2d_72/bias", "shape": [64], "dtype": "float32", "quantization": {"dtype": "uint8", "min": -0.009855106898455642, "scale": 6.891683145773177e-05, "original_dtype": "float32"}}, {"name": "conv2d_73/kernel", "shape": [3, 3, 64, 64], "dtype": "float32", "quantization": {"dtype": "uint8", "min": -0.08660813666441862, "scale": 0.0006713809043753381, "original_dtype": "float32"}}, {"name": "conv2d_73/bias", "shape": [64], "dtype": "float32", "quantization": {"dtype": "uint8", "min": -0.006593735291458228, "scale": 4.485534211876346e-05, "original_dtype": "float32"}}, {"name": "conv2d_74/kernel", "shape": [1, 1, 64, 8], "dtype": "float32", "quantization": {"dtype": "uint8", "min": -0.2954351239344653, "scale": 0.0022901947591819015, "original_dtype": "float32"}}, {"name": "conv2d_74/bias", "shape": [8], "dtype": "float32", "quantization": {"dtype": "uint8", "min": -0.008812041953206062, "scale": 8.392420907815298e-05, "original_dtype": "float32"}}, {"name": "conv2d_75/kernel", "shape": [1, 1, 8, 64], "dtype": "float32", "quantization": {"dtype": "uint8", "min": -0.29423249118468336, "scale": 0.0022633268552667953, "original_dtype": "float32"}}, {"name": "conv2d_75/bias", "shape": [64], "dtype": "float32", "quantization": {"dtype": "uint8", "min": -0.01547232816616694, "scale": 9.155223766962687e-05, "original_dtype": "float32"}}, {"name": "conv2d_76/kernel", "shape": [1, 1, 2, 1], "dtype": "float32", "quantization": {"dtype": "uint8", "min": -1.3910092115402222, "scale": 0.00022426072288961972, "original_dtype": "float32"}}, {"name": "conv2d_76/bias", "shape": [1], "dtype": "float32", "quantization": {"dtype": "uint8", "min": 0.00989360548555851, "scale": 1.0, "original_dtype": "float32"}}, {"name": "conv2d_77/kernel", "shape": [1, 1, 128, 64], "dtype": "float32", "quantization": {"dtype": "uint8", "min": -0.1875047567428327, "scale": 0.0014764154074238796, "original_dtype": "float32"}}, {"name": "conv2d_77/bias", "shape": [64], "dtype": "float32", "quantization": {"dtype": "uint8", "min": -0.0055475203429951395, "scale": 3.991021829492906e-05, "original_dtype": "float32"}}, {"name": "conv2d_8/kernel", "shape": [1, 1, 128, 256], "dtype": "float32", "quantization": {"dtype": "uint8", "min": -0.13963455224738403, "scale": 0.0011170764179790722, "original_dtype": "float32"}}, {"name": "conv2d_8/bias", "shape": [256], "dtype": "float32", "quantization": {"dtype": "uint8", "min": -0.011804293895907262, "scale": 8.743921404375749e-05, "original_dtype": "float32"}}, {"name": "conv2d_88/kernel", "shape": [3, 3, 256, 256], "dtype": "float32", "quantization": {"dtype": "uint8", "min": -0.043561279598404376, "scale": 0.0003457244412571776, "original_dtype": "float32"}}, {"name": "conv2d_88/bias", "shape": [256], "dtype": "float32", "quantization": {"dtype": "uint8", "min": -0.00472352263818988, "scale": 2.4992183270845928e-05, "original_dtype": "float32"}}, {"name": "conv2d_89/kernel", "shape": [3, 3, 256, 256], "dtype": "float32", "quantization": {"dtype": "uint8", "min": -0.04390677527761927, "scale": 0.00033516622349327686, "original_dtype": "float32"}}, {"name": "conv2d_89/bias", "shape": [256], "dtype": "float32", "quantization": {"dtype": "uint8", "min": -0.0025104795765204754, "scale": 1.755580123440892e-05, "original_dtype": "float32"}}, {"name": "conv2d_9/kernel", "shape": [1, 1, 128, 256], "dtype": "float32", "quantization": {"dtype": "uint8", "min": -0.13438986399594477, "scale": 0.00105818790547988, "original_dtype": "float32"}}, {"name": "conv2d_9/bias", "shape": [256], "dtype": "float32", "quantization": {"dtype": "uint8", "min": -0.011804293895907262, "scale": 8.743921404375749e-05, "original_dtype": "float32"}}, {"name": "conv2d_90/kernel", "shape": [1, 1, 256, 32], "dtype": "float32", "quantization": {"dtype": "uint8", "min": -0.1450989667107077, "scale": 0.001133585677427404, "original_dtype": "float32"}}, {"name": "conv2d_90/bias", "shape": [32], "dtype": "float32", "quantization": {"dtype": "uint8", "min": -0.002999569272951168, "scale": 3.487871247617637e-05, "original_dtype": "float32"}}, {"name": "conv2d_91/kernel", "shape": [1, 1, 32, 256], "dtype": "float32", "quantization": {"dtype": "uint8", "min": -0.145013801724303, "scale": 0.0011329203259711172, "original_dtype": "float32"}}, {"name": "conv2d_91/bias", "shape": [256], "dtype": "float32", "quantization": {"dtype": "uint8", "min": -0.005021235184269209, "scale": 2.6427553601416888e-05, "original_dtype": "float32"}}, {"name": "conv2d_92/kernel", "shape": [1, 1, 2, 1], "dtype": "float32", "quantization": {"dtype": "uint8", "min": 1.206222414970398, "scale": 0.0004817794351016774, "original_dtype": "float32"}}, {"name": "conv2d_92/bias", "shape": [1], "dtype": "float32", "quantization": {"dtype": "uint8", "min": -0.0027111927047371864, "scale": 1.0, "original_dtype": "float32"}}, {"name": "conv2d_93/kernel", "shape": [1, 1, 512, 256], "dtype": "float32", "quantization": {"dtype": "uint8", "min": -0.09307066313191957, "scale": 0.000732839867180469, "original_dtype": "float32"}}, {"name": "conv2d_93/bias", "shape": [256], "dtype": "float32", "quantization": {"dtype": "uint8", "min": -0.0027317162310960246, "scale": 2.239111664832807e-05, "original_dtype": "float32"}}, {"name": "conv2d_94/kernel", "shape": [1, 1, 256, 256], "dtype": "float32", "quantization": {"dtype": "uint8", "min": -0.11245169636665607, "scale": 0.000885446428083906, "original_dtype": "float32"}}, {"name": "conv2d_94/bias", "shape": [256], "dtype": "float32", "quantization": {"dtype": "uint8", "min": -0.007242494459976169, "scale": 3.6951502346817185e-05, "original_dtype": "float32"}}, {"name": "conv2d_95/kernel", "shape": [3, 3, 256, 256], "dtype": "float32", "quantization": {"dtype": "uint8", "min": -0.04265216746751, "scale": 0.0003306369571124806, "original_dtype": "float32"}}, {"name": "conv2d_95/bias", "shape": [256], "dtype": "float32", "quantization": {"dtype": "uint8", "min": -0.004385663788108265, "scale": 3.399739370626562e-05, "original_dtype": "float32"}}, {"name": "conv2d_96/kernel", "shape": [1, 1, 256, 128], "dtype": "float32", "quantization": {"dtype": "uint8", "min": -0.13025068804329515, "scale": 0.0010255959688448438, "original_dtype": "float32"}}, {"name": "conv2d_96/bias", "shape": [128], "dtype": "float32", "quantization": {"dtype": "uint8", "min": -0.005046185398218678, "scale": 3.6044181415847706e-05, "original_dtype": "float32"}}, {"name": "conv2d_97/kernel", "shape": [1, 1, 256, 128], "dtype": "float32", "quantization": {"dtype": "uint8", "min": -0.13034558763691023, "scale": 0.0010183249034133612, "original_dtype": "float32"}}, {"name": "conv2d_97/bias", "shape": [128], "dtype": "float32", "quantization": {"dtype": "uint8", "min": -0.005046185398218678, "scale": 3.6044181415847706e-05, "original_dtype": "float32"}}, {"name": "conv2d_98/kernel", "shape": [1, 1, 128, 128], "dtype": "float32", "quantization": {"dtype": "uint8", "min": -0.15744051985880908, "scale": 0.0012396891327465282, "original_dtype": "float32"}}, {"name": "conv2d_98/bias", "shape": [128], "dtype": "float32", "quantization": {"dtype": "uint8", "min": -0.006850908373427742, "scale": 5.074746943279809e-05, "original_dtype": "float32"}}, {"name": "conv2d_99/kernel", "shape": [3, 3, 128, 128], "dtype": "float32", "quantization": {"dtype": "uint8", "min": -0.05903443014797042, "scale": 0.00045763124145713506, "original_dtype": "float32"}}, {"name": "conv2d_99/bias", "shape": [128], "dtype": "float32", "quantization": {"dtype": "uint8", "min": -0.005787303189144414, "scale": 4.593097769162234e-05, "original_dtype": "float32"}}]}]}